Models/model_scratch_sample.pth (torch, 476875 bytes, 13 tensors)

conv1.weight f4 [32, 1, 5, 5]
00000000: 63f1 863e e253 aabb 753c 293d 59a8 593e
00000010: c434 6bbe 2593 703e dcff 57bc 387b 293e
00000020: b75e 463d d059 bbbd 079c e13d ef20 6e3c
00000030: 814a a63d 1185 1ebe dcbe 07be 4499 6cbc
00000040: 34ba 3b39 1132 4fbd 5bb3 1a3e 1bcb 8dbd
00000050: 183c e8bd bcca 4cbe b45f f3bd e676 80be
00000060: 5090 95be 98ae debd f889 253d 42cf 093d
00000070: 30e5 7ebe 23be d33e b03d b2bd 96ab a83d
00000080: e798 3d3d 92cc 16bf 33be 08bf 45e3 63be
00000090: 799f 0d3c 0b3b c1be fe38 99be 6907 03bf
000000a0: 746a 823e 6ec4 81be 7993 25bd 7828 9ebe
000000b0: 3cbc f7be 1170 923e e621 0dbe fe83 763d
000000c0: 1d96 93be 8e68 abbe 5923 65be 5569 64bd
000000d0: 3af1 323e db21 4c3c 62f9 a33e 53f6 213e
000000e0: b906 18bd 808e 50be f54c 083e 8d5e f43d
000000f0: 97a8 87be cbe3 af3d 9895 913d 6f22 2c3e
00000100: 80d4 e7bd 5b1e 0bbe 300c cfbd 8529 66bd
00000110: 21d6 71be 4540 23be 5887 0c3e 27fd 15be
00000120: 7b4d e33c c317 37bd ebad 8c3d 6ee8 1e3c
00000130: a1b9 643d d26b 8a3d 4346 90be 4d49 df3c
00000140: 1bc4 23be a9f1 24be 890e 073a 9710 c5bd
00000150: 28be 573d 923a d4bd 2a23 30be 3f76 303e
00000160: 2c52 73bd 4afe 8c3d 4711 a63d a7b3 18be
00000170: 4827 4c3d d055 0c3d 2933 3bbe 5344 0fbe
00000180: 73a1 4b3d 96af 983c 9ae3 ecbd b5f3 b0bd
00000190: f259 383e 5a19 90bd 512d 9f3d e1a8 003d
000001a0: db58 58be 40d1 37be ed57 3e3e b5b8 08bd
000001b0: 0a07 ab3d 795b e8bc 1772 b13d 4adc 223e
000001c0: 472d 213e 5e2a 5ebe 3314 74bd 1390 3a3e
000001d0: 7f29 2c3e ecd5 d13d 32e8 68be 0075 78be
000001e0: aacc e5bd bbbd 3c3d 6b27 533e 85e2 2ebe
000001f0: 5c44 8f3d 8af4 9fbe e356 bbbe 2528 1ebe
00000200: 45c5 713d 5689 4b3e e13d 99be 60c4 7abd
00000210: 2769 cf3d 25e0 d83d 5735 343e d7c1 2e3d
00000220: e259 863d 088e d13c 77f0 e3bd 75d9 8bbd
00000230: 58c5 38be 9899 5fbd 8dbe fcbd 2766 093e
00000240: 087f 2c3e d8bc a6bd ea5e ac3d 1c4b d63d
00000250: a51a 3f3e ee4c 683e 969d 09bf 6974 96be
00000260: fbbf 06bf 02b3 ddbe 3bf2 b1be e3f7 dabe
00000270: 7455 e6be 442c f9be 2108 81be cb31 4abe
00000280: e65d c3be b7d0 6fbe a0f9 a6be b51f 56be
00000290: 29f1 89be 4617 f9bd 4b09 a8be 1d23 a4be
000002a0: 28a0 cdbe 82ba 78be f7d3 a2bd b8f1 123b
000002b0: c669 1bbe 643a 09be 45e7 43bd c11c 773e
000002c0: c0e9 1b3e cc58 97bc f1d6 56be d615 4e3e
000002d0: e67a b0bc 90f6 35bd d007 93be 3c6b 2abe
000002e0: 1582 8abe a8e2 823e e7b7 3fbe 57d4 75be
000002f0: a7db d5bd 6d3e 6fbe 514f 123e d2d1 4cbd
00000300: 372d a0bd 6cc6 b83c de92 023e 46a7 bbbd
00000310: 5b00 2a3e 7ebc 5d3e a0a6 843e b82c 39be
00000320: ec80 d33c 0f1c 39be 8108 513e 4ae1 7dbd
00000330: 915f 233e 3caf a4bc a48e 02bd 1673 01bb
00000340: 9cd5 8a3d 09cd 133e f3f3 b03c cadb 743d
00000350: 5dc8 54be d673 493e 235b 803e 2911 333e
00000360: 93be 313e e5d1 2ebe 4cf0 8fbd c922 7a3e
00000370: 72ab 53be c35d 493e d236 38be ac1e 1cbe
00000380: e102 153e 3338 13be df39 b2bc c340 6a3e
00000390: 1d2b 873e e9a3 a03e 7e03 15bd 26bd 15be
000003a0: e0bd 923e a9d0 5c3c c7df 24bd 1ed6 673d
000003b0: 0c6d 10be 1acb 493e 6d6e 3d3e b2db 26be
000003c0: 611e 60be b8ea e5bc b50b dc3d 30cd 133c
000003d0: bd67 cbbd c172 0ebd 4088 86be 74d6 48be
000003e0: 964f 28be 274e 653e d925 323e 9e03 67be
000003f0: 6f3d 3fbe 2cf4 c2bd 1b82 28be 74cf 4fbe
0.26356038 -0.005197988 0.041317422 0.21255626 -0.22969347 0.23493631 -0.01318356 0.1655091
0.04843017 -0.0914799 0.11016088 0.014534219 0.08119679 -0.15480448 -0.13256401 -0.014440838
0.00017903076 -0.050584856 0.15107481 -0.06923505 -0.11339587 -0.19999212 -0.11883488 -0.25090712
-0.29211664 -0.10873145 0.04041478 0.033644922 -0.24892116 0.41356 -0.08703172 0.082358524
0.046288397 -0.589059 -0.5341522 -0.22254665 0.008643978 -0.3774036 -0.29926294 -0.5118318
0.25471842 -0.25345176 -0.040423844 -0.3089025 -0.483858 0.28601125 -0.13782462 0.06018447
-0.28825465 -0.33478206 -0.22376765 -0.055764515 0.17474833 0.012459244 0.320262 0.15816621
-0.037115786 -0.2036686 0.13310607 0.11932097 -0.2649581 0.0858837 0.07108611 0.1681001
-0.11319828 -0.13585798 -0.101097465 -0.05619194 -0.2361684 -0.15942486 0.13723505 -0.14647351
0.027746907 -0.044700395 0.0686911 0.00969897 0.055841092 0.06758846 -0.28178605 0.027256632
-0.15992777 -0.16107811 0.0005152007 -0.09622305 0.05267158 -0.10362734 -0.17200914 0.17232607
-0.059404537 0.06884439 0.08108764 -0.14912282 0.04984215 0.034261525 -0.18281235 -0.13990907
0.049714517 0.018638413 -0.11566849 -0.086402334 0.18003061 -0.070360854 0.07772315 0.031411055
-0.21127646 -0.17950916 0.18588229 -0.033379275 0.08350952 -0.02836393 0.08664339 0.15904346
0.15739928 -0.2169585 -0.059589576 0.18219022 0.16812705 0.102458805 -0.22744825 -0.24263382
-0.11220677 0.04607938 0.20620506 -0.17078598 0.069954604 -0.31241256 -0.36589727 -0.15445001
0.05902602 0.19876608 -0.29930022 -0.061222434 0.10127478 0.10589627 0.17598473 0.04266533
0.065601125 0.025580421 -0.111298494 -0.06828586 -0.1804403 -0.054589838 -0.12341032 0.13417874
0.16845334 -0.08141488 0.08416541 0.10463545 0.18662508 0.22685596 -0.5375608 -0.2938569
-0.5263669 -0.43300635 -0.3475512 -0.42767248 -0.4498707 -0.48666584 -0.25201514 -0.19745557
-0.38157576 -0.23419462 -0.32612324 -0.20910533 -0.26941803 -0.12162642 -0.3281959 -0.3205804
-0.40161252 -0.24289897 -0.07950585 0.0022421908 -0.15177068 -0.1340118 -0.047827978 0.24132062
0.15225887 -0.018474959 -0.20980431 0.20125517 -0.021542978 -0.044424593 -0.28716898 -0.16642469
-0.2705237 0.2556355 -0.18722497 -0.24006782 -0.10442286 -0.23363657 0.1428807 -0.050004788
-0.07821124 0.022555552 0.12751338 -0.09162764 0.16601698 0.21653935 0.25908375 -0.18083465
0.02581831 -0.1807711 0.204134 -0.06198243 0.15954424 -0.02010309 -0.031874314 -0.0019752434
0.06779024 0.14433683 0.021600699 0.05977992 -0.20779558 0.19673094 0.25069532 0.17487015
0.17357855 -0.17072256 -0.07028255 0.24427332 -0.2067087 0.19664674 -0.17989662 -0.15246075
0.1455188 -0.14376907 -0.02175611 0.22876267 0.2640008 0.31375054 -0.036380284 -0.14622936
0.28660488 0.013477483 -0.040252473 0.056600682 -0.14104098 0.19706383 0.18499155 -0.16294745
-0.21886589 -0.028066024 0.107444204 0.0090210885 -0.09931896 -0.034777407 -0.26275826 -0.19613057
-0.1643661 0.22393094 0.1739725 -0.22559974 -0.18675779 -0.09519228 -0.16455881 -0.20293981

conv1.bias f4 [32]
00000000: 3e46 7a3c 105d 0bbc b14c ac3b 2839 903e
00000010: d339 13be af04 313b 1388 9e3d 33e1 09bc
00000020: c0d7 8ebe f51f f2bd 279b 49bd d491 51be
00000030: 0b06 0f3c 14f8 b23d 23a7 ae3a 2831 19bc
00000040: b3be 27bb 04cc 603e a3bf 92bb 5d81 a1bb
00000050: 6fdc 5e3e 4685 66ba 5a47 f2bb 8f01 0cbb
00000060: 1bbc 03be ae8c 0cbe ecb6 90bb b142 44bd
00000070: 0b6d 41be f33e 38bb 8211 f7bb 5ad2 303e
0.015275536 -0.008506075 0.0052581658 0.28168607 -0.14377527 0.0027010848 0.07740798 -0.008415508
-0.2789898 -0.118225016 -0.04922023 -0.20465785 0.008729468 0.087387234 0.0013324957 -0.009350099
-0.0025595843 0.21952826 -0.0044784113 -0.0049287514 0.21763776 -0.0008793663 -0.0073937597 -0.0021363234
-0.12864725 -0.1372554 -0.0044163372 -0.047915164 -0.18889253 -0.0028113693 -0.007539929 0.17267743

conv2.weight f4 [16, 32, 5, 5]
00000000: c48f 3dbd 5f66 8fbd db57 fa3d ec8f 3e3e
00000010: 12bc c93d 3b30 abbc d5e2 6fbd cb28 0dbd
00000020: 50bb 513d 48a3 01be 2cc7 47be 4365 89be
00000030: 5ebb 56be 83fc 7dbd 851b 50be a50f e1be
00000040: 5e38 17be f4d2 bd3d 359c 4a3e 9632 6e3e
00000050: 7aa4 86be 8a8e c2bc 619a 14bd 1ffe 5a3d
00000060: 2924 e8bc a35c 66be be92 1bbe 85f0 94bd
00000070: fdef 273e 5917 54be d90b e9bd 6655 70be
00000080: a238 debd 486c 293e 2bc3 72bd 59d8 99bd
00000090: f82f c1bd b4fe 20be 76d5 cb3d 2836 4c3d
000000a0: 8dbc f0bd 7348 eb3d beac bd3d a959 49bc
000000b0: ca41 1d3e bc39 8bbe 06bc fbbc 05af 0e3e
000000c0: f7a9 7b3d b13e a8bd 0512 863d 2c8c 2c3e
000000d0: 50ab 193e c395 693d b210 473e da2a 69bd
000000e0: 0162 013d 8eb9 c93d 8cf3 5e3d a29f b33d
000000f0: ef59 4abe a623 a4bd 6c76 52bd b02c d23b
00000100: 2568 993d ffd6 8f3c f25f 9ebd a519 76bd
00000110: 29a8 c43b 023e b63d d83b aabc 059d 94bd
00000120: 41aa 07be fdff 74be 050a 05bd ba42 8fbd
00000130: 9103 5dbd ea65 283e 3d90 833e 47d1 6e3e
00000140: af03 62be fd37 72bd 9201 3f3d e2c3 2b3e
00000150: 8f5c 8b3e 1557 a7be e3f4 74be ae2f b8bd
00000160: a38f 613d 2ec3 2b3e 820b d4be fa3e 88be
00000170: d69b f3bd 40f1 bcbc a5d3 0a3e b7f2 b2be
00000180: a167 92be 5683 febd cb26 b4bc 6590 ba3d
00000190: 3dd3 debc ae7d b63c 41f5 4e3c 2ede 2b3e
000001a0: b13d d23c 6fd0 fabd e2e0 8cbd 4a18 3ebd
000001b0: b5ac 013e fd00 8c3d bfa3 52be 85b9 abbd
000001c0: c97e d23b d38f cc3d 821d 0fbd fc5e 7cbe
000001d0: 5c5d 0bbe 4be8 7abd 8cdb eb3d beba 57bd
000001e0: 4d65 9bbe dc09 1cbe 9650 3cbe aa63 dbbd
000001f0: d55f 80bd 8188 e1bd d9c8 ccbd c487 27be
00000200: a99b 16be 482a e0bd 37b0 37bd f159 c0bc
00000210: 359b 96bc d723 bdbb 1927 173d b034 0f3d
00000220: 9944 b53d b471 613c c44c 303d 2cd2 953d
00000230: 95c2 c9bc d360 18be 141a 68bd a948 ad3c
00000240: a5c7 103e 171b 2ebe 9cae 16be f232 ccbc
00000250: a488 843c 2710 003e 7053 633b 1412 d8bd
00000260: 41e1 783d 41f0 ec3c 1b01 3abe c057 253d
00000270: 0e11 35be 87e9 01be b1b5 083e 890d 20be
00000280: 3ad8 163e 8f7a 3ebe 029d bfbe eb41 a8bd
00000290: 1b6a 30bd 4212 933e 1282 703e ba61 93bc
000002a0: dad8 d5bd cfc5 71bd 9720 ba3e 2832 ad3e
000002b0: ffc4 393e d744 833c 75ce a53d cd08 d2be
000002c0: 52f6 b0be f134 fdbd dcd6 52bc e88b 82bd
000002d0: 0db3 0cbe 88bf 8dbe e528 b5be 4ccb 2cbe
000002e0: aeeb 31be 926d 01be c3f3 6ebe d495 b0be
000002f0: c934 6bbe ce44 2cbe 4e6a 80bf 90dc 12bf
00000300: 5253 ddbe 123b dbbe ee2d cdbe 6a0c 84bf
00000310: 7110 0cbf 8784 61be 53f3 a3be 14f4 0dbf
00000320: 594a c83d 8875 d13d fdb0 573d fb0e 233d
00000330: 2612 d63d 6f92 29bd 4ae4 e33c 27e3 833d
00000340: b955 1a3d 6b49 193e cd61 61be b751 e8bc
00000350: f0f1 b73c a30f cb3d 25c9 293e b3a7 8cbe
00000360: 1c1b d8bd 43ec 25bd 9793 d83c ae5e e93d
00000370: a142 afbe f68f 50be 3e6d 93bd 1e94 433b
00000380: 4197 e83d 1911 343d 07cb ba3d 3014 fb3d
00000390: 9777 b73d 9c55 213e 4018 6ebd e652 383d
000003a0: 6d1e d13c df4f fb3c ff6a b43d b532 f9bd
000003b0: 5167 27bd 9a16 3cbc a8da f23c 8ecc d23d
000003c0: 3bde 0cbe 3baa 99bd 90e5 31bd 67f7 b6bc
000003d0: 4338 393d 0384 65be a8e4 ecbd f428 a2bd
000003e0: ed42 c9bd 9989 2ebc 86b9 753c 4afa d13b
000003f0: 13db 913d a018 85bc 7cb4 08be 7549 d7bc
-0.046279684 -0.070019476 0.12223788 0.1860959 0.09850325 -0.020897022 -0.058565933 -0.03446273
0.051204026 -0.12659943 -0.19509572 -0.2683507 -0.20969912 -0.062008392 -0.20322998 -0.43957248
-0.14767596 0.09268752 0.19786151 0.23261485 -0.2629736 -0.023749609 -0.03628004 0.053465005
-0.028337555 -0.22496276 -0.15192696 -0.07272438 0.16400142 -0.20712031 -0.11379213 -0.23470077
-0.108506456 0.16545212 -0.059268158 -0.07511968 -0.094329774 -0.15722162 0.09952824 0.049856335
-0.11754713 0.11488428 0.092614636 -0.012289443 0.15357128 -0.27192485 -0.030729305 0.13933952
0.061441388 -0.082150824 0.06546406 0.16850346 0.15006757 0.05702759 0.19439963 -0.056925632
0.031587604 0.09849845 0.054431483 0.08770682 -0.1976087 -0.08014612 -0.051382467 0.0064140186
0.07490567 0.017558573 -0.07733144 -0.06008305 0.0060014916 0.08898546 -0.020780489 -0.072565116
-0.1324854 -0.23925777 -0.03248026 -0.06995149 -0.05395848 0.16445127 0.25695983 0.2332202
-0.22071718 -0.059135426 0.046632357 0.16773942 0.27219054 -0.32683626 -0.23921542 -0.08993469
0.055068623 0.16773674 -0.4141503 -0.26610547 -0.11894958 -0.023064256 0.13557298 -0.34950802
-0.28594688 -0.12427394 -0.021991154 0.09109572 -0.027200336 0.022276726 0.012631715 0.16783974
0.025664182 -0.12246787 -0.068788305 -0.046409883 0.12663539 0.06836126 -0.20570277 -0.083849944
0.0064238054 0.0998837 -0.03494025 -0.24645609 -0.13609833 -0.061256688 0.115164846 -0.052668326
-0.30350724 -0.15238136 -0.18390116 -0.10712369 -0.062682785 -0.11012364 -0.09999246 -0.16360384
-0.14707817 -0.109455645 -0.044845786 -0.023480387 -0.018384555 -0.0057720947 0.03690252 0.034962356
0.088509746 0.013760019 0.04304196 0.07315478 -0.024628917 -0.14880686 -0.056665495 0.021152811
0.14138658 -0.17002521 -0.14715046 -0.024926636 0.016178437 0.12506162 0.0034687184 -0.10550323
0.060761694 0.028923156 -0.18164484 0.040366888 -0.17682287 -0.1268674 0.1335056 -0.15630163
0.14730921 -0.1860144 -0.37424475 -0.08215698 -0.04306994 0.28724867 0.23487118 -0.017990936
-0.10441752 -0.059026536 0.3635299 0.3382733 0.18141554 0.016024036 0.08096019 -0.4102234
-0.34562927 -0.123636134 -0.012868609 -0.06374341 -0.13740177 -0.2768519 -0.35382763 -0.16874427
-0.17375061 -0.12639454 -0.23335175 -0.3448931 -0.22969355 -0.16823122 -1.0032442 -0.573678
-0.4322763 -0.42818505 -0.40074104 -1.0316288 -0.5471259 -0.22023211 -0.3202158 -0.5545056
0.09779806 0.102274954 0.052659024 0.03980921 0.1045268 -0.041399416 0.027818818 0.0643981
0.037679408 0.14969413 -0.22009964 -0.028359277 0.022454232 0.09915092 0.16580637 -0.27471694
-0.10552046 -0.04050852 0.026437564 0.11395012 -0.3423052 -0.20367417 -0.07198571 0.0029842923
0.113569744 0.043961618 0.09120756 0.1225971 0.08958357 0.15755314 -0.058128595 0.045000933
0.025527203 0.030677734 0.088094704 -0.12167875 -0.040870015 -0.011479998 0.029645279 0.10292922
-0.13756649 -0.07503172 -0.04343182 -0.022334768 0.04521967 -0.2241364 -0.1156705 -0.079179674
-0.09827218 -0.010652923 0.0149978455 0.0064080106 0.07121863 -0.016247094 -0.133501 -0.026280144

conv2.bias f4 [16]
00000000: bc21 65bd c1f3 42be bf87 2f3e ca1b 4abd
00000010: 70da 01bc ebbe 68bc 23b2 22bd c5a9 a93c
00000020: 4e48 c2bc 3455 acbc 0eb7 d83c 89da c03d
00000030: a7f7 1bbc 705a 103e 9c64 303b b809 1d3c
-0.055940375 -0.19038297 0.17141627 -0.049342908 -0.007925615 -0.014205675 -0.039720666 0.020710835
-0.023716118 -0.021036722 0.026454475 0.09416682 -0.009519494 0.14096999 0.0026915437 0.009584837

conv3.weight f4 [8, 16, 5, 5]
00000000: d14a e6bd 2c1a e0bd 06be 9bbd 7852 bd3c
00000010: 47c3 1ebe 0e9d f93c 485b b23d 2802 d9bd
00000020: f93f 30bd 9ea0 d0bd 2e90 68be 9c7e ad3d
00000030: 2296 393d 1f03 f3be 4672 36be 3f84 b0be
00000040: 3b08 75bc 556b 423e bbef 323d 01b8 13bd
00000050: e569 18bd 7758 3cbe e457 c9bd e702 98bd
00000060: ad18 25be 2479 17be c4a9 543d 242e 4f3c
00000070: 6051 2d3d e2df 2a3e 12bb 26be b156 1abe
00000080: cea8 5dbe fe08 6fbd d4bf 5e3d 92aa 263d
00000090: 865e 64bf b9fe 10bf 5c46 a1be 65ff 24ba
000000a0: bebe 2b3e b0b7 11bf e353 53bf e673 ddbd
000000b0: 50df 023d b862 463e 5630 dabe 2dc6 9cbe
000000c0: d331 1f3e c987 4f3e 44d0 dc3d bdd7 233d
000000d0: a4d7 8d3d 7eb0 f73c c6eb e4bc 2fff e4bd
000000e0: 69c4 f9bd 1dec 0e3d 7ef8 023c ad65 10be
000000f0: f599 bfbe 051a a1be ef67 81bd a6bc d8bb
00000100: a505 0abe e685 21be 0ad6 c0be 9b72 30be
00000110: 97d9 82bd b3bc b3bd 711d 543d f33d 84bc
00000120: cb2d 3fbd 16d8 afbd 15af b73c 870d 913b
00000130: d7d2 0fbd d0a8 55bc 1278 81bc 6900 cc3b
00000140: 8080 e0bb 5c83 65bd 08ad a53c ed8a d0bc
00000150: f700 543c cef1 64bb 7d03 69bb 3496 cc3c
00000160: 95bc cb39 e836 c83c 32f4 4bbb 65d5 3a3d
00000170: 36c4 08bd 336a 34bd 8cd6 e8bc a580 94bb
00000180: 6496 103a 23dd 32bd de3c 18bd e076 11bb
00000190: d1a8 a83d d067 0e3d 96a6 443d 672c 983d
000001a0: f2b3 e03d 1792 0cbd 962e bfbb 111f 2f3c
000001b0: ac87 48bd 1127 a8bc 21e5 99bd 3253 a3bc
000001c0: 9ef0 ea3c e565 0abb 2b28 303b a8aa 97bd
000001d0: b854 8fbd 4263 07bd 2d5e c1bd 5343 b33c
000001e0: c6af 0cba 354c 4ebd b45e 7ebd bf4d 23bd
000001f0: 8ad9 e0bc a668 c13b 16af 18be cee2 a13d
00000200: 2572 553d 7000 40be 17cf c4bc 694c 15be
00000210: 6fad b2be 7e3e da3d 0850 20be 7eb3 32be
00000220: 01e7 91be cccc 0fbf 3312 063c 24d5 04be
00000230: e59e 1dbd 08bd cc3d fb46 32bd 3db3 403e
00000240: 286b 663d 6c3f 78be 4936 08be c81b b9bc
00000250: 3211 b5bd 4863 35be f46f 0bbd fd68 893c
00000260: 56a6 453d 1f51 e43c c276 f5bc 09c9 4c39
00000270: c013 bc3c cf47 923c b343 413d 01ee a03c
00000280: f275 40bd 9991 62bd f540 063d 696d faba
00000290: 5cb4 143d daf2 0ebd d15c 5b3c 897a a1bc
000002a0: b7a8 ac3c 16ca 993a 01b8 03bd 7203 9f3c
000002b0: af8c 96bc a80f 043c ec78 843a f8f8 2d3e
000002c0: c79e 36bd 8930 203d 77ba 073e 1603 acbc
000002d0: f430 ae3d 5e4c 65be 0e6d 01be 3876 0a3c
000002e0: 14ac a0bd c148 423e 9cca 30be 075b 4cbe
000002f0: 6a09 6cbd e5a4 86bd 647e 973e a7e6 cfbd
00000300: 01ae bdbe 0bd8 92bd 6088 0bbd 53a0 653e
00000310: 0300 3b3e e47c debd dfa0 eebd 3f29 b03a
00000320: 9bc4 513d c75a fe3a 6d4e 143d 5476 0dbd
00000330: 88f7 f93b f825 d4bc 5aca 4b3d 9472 1fbc
00000340: cba1 ad3c 4691 cebb 46ba 183b 18d3 a93b
00000350: f681 4c3d 5c99 473d 8ced 0abc 3c0c fc3b
00000360: a3b6 12bc 835a edbc a61f 1d3d 31eb 0c3d
00000370: fd4c cabb 5c9b d53c cad4 103d 8d7e 0d3d
00000380: d563 18bd 7aa2 a8bc 0b5f 12bd d712 0fbd
00000390: ef66 a33c ea98 fc3c a974 5d3b f71d ac3c
000003a0: b25e 453d 9ef2 28bd 8ea2 b33c c053 453d
000003b0: 74c6 e13a 4a56 35bd af11 43bc 2e7d b13c
000003c0: c881 cebb aec1 afbc 8c72 b13b dfdf c6bb
000003d0: f052 3c3c 48af 16bd 2daf bfbc 0843 0b3d
000003e0: 4950 1bbb c4dd 93bc 790f 353e 0237 083e
000003f0: fd4f de3d aa18 1f3c 7c4b ccbd fdaf 393e
-0.11244739 -0.10942492 -0.076046035 0.023110613 -0.1550418 0.030470397 0.08708817 -0.105961144
-0.04302976 -0.10186885 -0.2271125 0.084714144 0.045309193 -0.4746332 -0.1781703 -0.34475896
-0.014955576 0.18986256 0.043685656 -0.03606415 -0.037210364 -0.18393122 -0.09831217 -0.074224286
-0.16122694 -0.14792305 0.051919714 0.012645278 0.042313933 0.16686967 -0.16282299 -0.15072133
-0.21646425 -0.058358185 0.05438216 0.040690012 -0.8920673 -0.56638676 -0.31498992 -0.000629416
0.16771981 -0.5692091 -0.82549876 -0.108131215 0.03195125 0.19373596 -0.42615002 -0.30619946
0.1554635 0.20266642 0.10781911 0.040000666 0.06925896 0.030235525 -0.027944457 -0.11181485
-0.121956654 0.034893144 0.0079938155 -0.14101286 -0.37422147 -0.31465164 -0.06318652 -0.0066142855
-0.13478716 -0.15773734 -0.376633 -0.17231219 -0.06389158 -0.08776226 0.05178589 -0.016142821
-0.04667453 -0.08586137 0.022422353 0.0044266614 -0.035113182 -0.013040736 -0.015804324 0.006225635
-0.006851256 -0.056033477 0.02022411 -0.02545687 0.012939683 -0.0034934166 -0.0035555058 0.024973966
0.00038859682 0.024440244 -0.0031120894 0.045613665 -0.033390246 -0.044046592 -0.028422616 -0.004531937
0.0005515574 -0.043667924 -0.037167422 -0.00221961 0.08235324 0.034766972 0.04801043 0.07430344
0.10971822 -0.03431901 -0.005834411 0.010688559 -0.04895751 -0.02052644 -0.07514406 -0.019937132
0.028679188 -0.0021117863 0.002687941 -0.07405597 -0.06998581 -0.033053644 -0.09441791 0.021882689
-0.00053667685 -0.050365645 -0.062102035 -0.039869066 -0.02744748 0.0059023676 -0.1491054 0.07904588
0.05211081 -0.18750167 -0.02402453 -0.1457993 -0.34897944 0.10656451 -0.1565553 -0.17451283
-0.28496554 -0.5617187 0.00818305 -0.12971932 -0.03848161 0.09996992 -0.043524724 0.18818374
0.056254536 -0.24242944 -0.13301958 -0.022596255 -0.0884117 -0.17713654 -0.034042314 0.016773695
0.048254333 0.027870713 -0.029963855 0.00019529847 0.022958636 0.017856507 0.047183704 0.01964474
-0.04698748 -0.055314634 0.03277679 -0.0019106093 0.036304817 -0.03489957 0.013388828 -0.01971175
0.021076543 0.00117332 -0.0321579 0.019410823 -0.01837763 0.008060373 0.0010106838 0.16989505
-0.044585016 0.039108787 0.13254724 -0.020997565 0.08505431 -0.22392413 -0.12639257 0.008451037
-0.07845321 0.18973066 -0.1726479 -0.19956599 -0.057626165 -0.0657442 0.29588616 -0.10151415
-0.37046817 -0.07170113 -0.034065604 0.2242444 0.18261723 -0.10863665 -0.116517775 0.0013440027
0.05121289 0.0019405716 0.036207605 -0.034536675 0.007628385 -0.025897011 0.049753524 -0.009731907
0.021195313 -0.006303939 0.0023304387 0.005182635 0.049928628 0.04873024 -0.008479487 0.007691888
-0.008954677 -0.028973823 0.03836026 0.034403984 -0.0061737285 0.026075058 0.03535918 0.034544516
-0.037204582 -0.020585287 -0.03573517 -0.034930076 0.019946543 0.030834634 0.0033791459 0.021010382
0.04818601 -0.041247003 0.021928098 0.048175573 0.0017225281 -0.044271745 -0.011906072 0.021666136
-0.006302092 -0.021454658 0.0054152664 -0.006069168 0.011494383 -0.036788255 -0.02339896 0.033999473
-0.0023698977 -0.018050082 0.17681684 0.13302234 0.108551 0.00971047 -0.09975335 0.1813354

conv3.bias f4 [8]
00000000: e538 5abd 58ba 55bc 0d1f 373d f7f2 17be
00000010: ce4e 80bd 55c8 75be fd8b 0f3e 40e8 edbc
-0.053276915 -0.013044916 0.044707347 -0.14838777 -0.06265031 -0.24002202 0.14018245 -0.02904141

conv4.weight f4 [4, 8, 5, 5]
00000000: 3cdc 963c ef5f bf3d 9620 cabb a1da 88bd
00000010: 56a1 393e 346e 4fbd 1494 3fbd f9c8 85bd
00000020: ea89 c93d ca7d 0b3d 6c70 533d 274a 91bc
00000030: e9b0 8a3d 3ce5 b93d d32b 5bbd 66c2 fd3d
00000040: 2385 aa3c 4b5e af3b ff57 913c 06ff 443d
00000050: 90ed 083c 567d 143e f3e5 2b3d 1a9f 20bb
00000060: f912 823d 7e56 2a3e 25ba f63d 3526 d83c
00000070: 6046 973d efde db3c 313c 7a3d 52f4 64bc
00000080: aa3a c3bc 1e59 7dbc f1c6 28bb 00a8 0f3d
00000090: 3acf 2fbe ebaf c8bd 7d4b 5f3b 73d4 c13d
000000a0: 93e6 983d 7506 8fbd f858 cdbd 351c cfbd
000000b0: f185 873c 449c dc3d 0fbf 3239 a64f f0bc
000000c0: acfb f0bc 657a cb3d 7143 06bd a33d 23bd
000000d0: d19a f1bd 58b9 b9bd 8bb0 223c a9dc 7ebd
000000e0: 83e5 febd 1862 04be 0303 10be f708 ab3c
000000f0: 436f f7bd 1849 13be c05c 02be 7088 493d
00000100: 17c4 3a3d 6247 96bd 0c9e e7bd 74ce 56bd
00000110: 195d fc3c a55e 4abd 04cb a03b cda2 753c
00000120: 0161 94bd 3db4 f4bc c915 693d f795 f23c
00000130: a5c2 07bd 202d 97bd d3cd 41bd 7006 1c3b
00000140: 9781 c93c 3820 85be 359b 73be 9d7d 1cbd
00000150: ff84 a43b 9316 c8bb 14d0 08be dcc8 b2bd
00000160: 428d 8e3c 9ef4 d43c c547 203d 7129 efba
00000170: 8f71 e53c b1f7 ab3d 0657 eabc f5ab 913d
00000180: 1160 e4ba 498f 4b3c 36fc 40bc 5484 8a3d
00000190: 5c0f cb3b 00a9 fd3d 0eab d43d 92b4 6e3c
000001a0: 9a5a 053d f738 88be b6f8 53be 55ff 07bd
000001b0: 4ddd e9bd 6016 53bd 4176 9abe 3a9f 81be
000001c0: 8df4 ecbe 1ece b2be 8e4d 5a3d 44ba 0abe
000001d0: e453 5cbe cab6 5dbe ccbc e9bd a2f8 583e
000001e0: 52db 9cbe 8e83 61be af3c 08be 0203 c23d
000001f0: 3b38 0a3e d31c cfbe 7e2c 8fbe 2854 96be
00000200: 107b b2be 3cb2 e8bd a99c 65be 5881 fbbe
00000210: 61a9 b4be e09b 9dbe 21c8 aabe 7392 81be
00000220: 72c2 59be 0efd 093c eb19 70bc 06bf 80be
00000230: 055e 23be e3c4 c9bd a60d 91bd 98e2 bc3d
00000240: f653 25bd 2854 9ebd bb90 dcbd 72a7 0cbd
00000250: 8ebd 05be ac26 61be 9ebb 0c3e 832b 0f3e
00000260: 69a9 b83d ea3a be3d ccb6 373e 7743 d43d
00000270: 2852 963d 576b 103e 89d2 403d 906c c93d
00000280: 59c1 aa3d 6d81 313d b381 833d dbdf a13c
00000290: 7cad 333e 16cd b03d 9737 5c3c 7e16 d0bc
000002a0: c724 3c3d 41d6 6e3d 83fd 173e 073f 40bd
000002b0: 1e16 e93b 3142 303e b558 2c3e b7d9 90bd
000002c0: 2d21 94bd f482 c2bd 6662 b0bd c604 2dbd
000002d0: 5ac8 84bd 0d38 e8bd 127e cabd a838 afbd
000002e0: 88c2 6b3d 60fd d0bd 066e 80be 2f15 38be
000002f0: ad74 73bb 1004 803d b72c cabd b3cc 14be
00000300: fce6 943b 762d b3bb 1b52 6b3d f942 a23d
00000310: ae09 a73d f93a 183d 1495 01bc 27f0 7b3d
00000320: 966a 0c3d 77ef a33d 3d67 4a3b 4723 ceba
00000330: f72e 873d dec8 453d aa55 1ebd d980 b13c
00000340: 0900 783d c8bb 123c debb 8cbc 359d 213c
00000350: 276e 1c3b 7e90 973d 0413 733d a069 6e3d
00000360: 9ac7 893d 6b09 2b3d 224c 253d 722b 26bc
00000370: c128 b53d 637a 983d 8cc7 aa3d 388e 0f3d
00000380: 40d5 283d e37f 163e e228 403d 0520 723d
00000390: 9d2f c33d 932c a13d e1d8 3d3d d095 68bb
000003a0: 49b7 f6bc b849 b1bd 6aed 753d cd79 493d
000003b0: 1a4c 14bd b1f4 1d3c e401 c8bd e245 9a3d
000003c0: b1b7 2a3c 1aa7 9bbd 1941 f6bd fd04 91bb
000003d0: 0612 a03d 95b1 363e 5b16 d33c 960d 843d
000003e0: a70f 933d d5c3 e63d ae92 a13c 1b3c 283c
000003f0: 2268 41bc 1690 fbbc 3716 49bd c495 20bc
0.018415563 0.0934447 -0.0061684353 -0.06682325 0.18127951 -0.050642207 -0.046772078 -0.06532473
0.09840758 0.03405551 0.051620886 -0.017735554 0.06772024 0.09076926 -0.05350859 0.12390594
0.020815438 0.005351817 0.017742155 0.04809477 0.008357421 0.14500937 0.041967344 -0.0024508894
0.06351275 0.16634557 0.12047223 0.026385406 0.0738647 0.026839701 0.06109256 -0.013974266
-0.023831684 -0.015463142 -0.0025753344 0.035072327 -0.17168894 -0.09799179 0.0034072094 0.094643496
0.074658535 -0.069836535 -0.10026735 -0.10112802 0.01654336 0.10771993 0.00017046578 -0.029334854
-0.029416882 0.09935454 -0.03277916 -0.039853703 -0.11797107 -0.09068555 0.009929786 -0.062222157
-0.1244612 -0.12928045 -0.14063649 0.020878298 -0.12081768 -0.14383352 -0.12730694 0.049202383
0.045597162 -0.07337834 -0.11309442 -0.052442983 0.030806111 -0.049406666 0.004907014 0.014992428
-0.072450645 -0.0298711 0.05690554 0.029612524 -0.033144612 -0.07381654 -0.04731543 0.0023807548
0.024597926 -0.26001143 -0.23789676 -0.03820573 0.005020737 -0.0061062067 -0.13360626 -0.08729717
0.017401341 0.025995549 0.039130945 -0.0018246603 0.02800825 0.08396853 -0.02860595 0.07112876
-0.001742365 0.012424299 -0.011778882 0.06763521 0.0061968993 0.1238575 0.103841886 0.0145694185
0.032557108 -0.2660596 -0.20700344 -0.033202488 -0.11419163 -0.05153501 -0.30168346 -0.25316793
-0.46280327 -0.3492288 0.05329662 -0.13547617 -0.21516377 -0.2165176 -0.11412963 0.21188596
-0.30636078 -0.2202284 -0.13304399 0.0947323 0.13498013 -0.4045168 -0.27963632 -0.2936108
-0.34859514 -0.113621205 -0.22423042 -0.4912212 -0.35285476 -0.30782986 -0.3335581 -0.25307044
-0.21265581 0.008422149 -0.014654617 -0.2514574 -0.15953834 -0.09852006 -0.07082681 0.09222907
-0.040363275 -0.07730895 -0.10769793 -0.034339376 -0.1306059 -0.21987408 0.13743445 0.13981442
0.090166874 0.09288581 0.17940825 0.103644304 0.07339889 0.14103447 0.047075782 0.0983516
0.083376594 0.04333632 0.064212225 0.019760063 0.17546648 0.08632867 0.013440988 -0.02540135
0.04593351 0.058309797 0.14842801 -0.046935108 0.0071132323 0.1721275 0.16830714 -0.07072776
-0.0723289 -0.094976336 -0.08612518 -0.04224088 -0.064835265 -0.11338816 -0.09887327 -0.08555728
0.057558566 -0.102045774 -0.2508394 -0.17976831 -0.0037148402 0.06250775 -0.0987181 -0.14531212
0.004544137 -0.005468066 0.05745135 0.0792293 0.08156143 0.037165616 -0.007909078 0.061508324
0.034281336 0.08004659 0.0030884289 -0.0015727066 0.06600755 0.048287265 -0.038655914 0.021667885
0.06054691 0.008955903 -0.017179426 0.009864141 0.0023869367 0.074006066 0.059344307 0.0582062
0.06727524 0.04175703 0.04035581 -0.010142194 0.08845664 0.074452184 0.08338842 0.03504774
0.041218996 0.14697222 0.04691399 0.059112567 0.09530566 0.0786983 0.04634941 -0.0035489686
-0.030116694 -0.08656639 0.06004087 0.049188424 -0.03620539 0.0096408585 -0.097659856 0.0753286
0.010419772 -0.076002315 -0.12024135 -0.0044256435 0.07815938 0.1784118 0.025767496 0.06447904
0.0718072 0.11267821 0.019723263 0.0102682365 -0.011804612 -0.030708354 -0.04909345 -0.009801332

conv4.bias f4 [4]
00000000: 1dbf 09bc b92a 57bd 2524 1abd 717f 07bd
-0.008407381 -0.052530978 -0.037632126 -0.033080522

fc1.weight f4 [200, 400]
00000000: 87b4 67be ca1c 70bd b39c bd3e 6efe 783e
00000010: 78b2 223e 1ebe 313e 7f02 623e 66c3 783e
00000020: 5574 553e e5ed 56be 723f f43b 3830 893e
00000030: 540e 123e d4f9 19be a447 c3bd 8be3 98bd
00000040: 97a0 ddbc 0db0 103d 3542 a73c 58bf df3d
00000050: d98a 803e 8691 38bd 701a 02bb 195f cdbd
00000060: ede5 4a3d a6f6 0c3d 8ca9 3d3d 3219 4a3d
00000070: 36d8 f2bc 7673 60bc db84 f93d 171a c1bd
00000080: bb8d eabd 1f7b 01be d6c3 3abd ad78 c8bd
00000090: 50f0 423d e9d6 c13d fcdf 5ebc 234b 153d
000000a0: b58c 533d 16ad 2bbe 121a 21bd aa83 0abe
000000b0: 37f0 d4bb d031 58bc c5c4 ed3d 4f87 49bd
000000c0: dd45 b3bc a36f 953d ff69 8b3d a55d 16be
000000d0: f456 d8bd 2daa 4abe c5ca 30be 3f4d 42be
000000e0: 09aa 303d 1b0a 62bc de3f acbd 0954 93ba
000000f0: a882 d03d f1dd a9bd 6371 5c3c 57ec 6fbd
00000100: c45e dfbc 7bcb 643b 77b9 fb3c 082c 3abd
00000110: 9c84 04be b43e 11bd 8262 5c3e f49b 4cbc
00000120: 8e1a e03a c539 6c3d 8d81 29bc 888f 913c
00000130: 8d58 733d fd74 00bc d108 ccbd d1f2 b93d
00000140: bf04 30be 2828 063e 0c58 04be d9b7 aebc
00000150: 1a02 f8bc 9ad7 51bc 408c 5f3c fe1b ffbd
00000160: 98cb 5fbc 02c3 96bd 6941 07bf a07a 60be
00000170: dc61 1d3c 05d9 81bd ae86 c0bd 83d6 e5bd
00000180: 56b1 81bc ae0e 53bc 706a 8cbd 1ffa 80bd
00000190: 2e67 83be b441 0e3d f9e5 8b3d e680 c83d
000001a0: c7a8 d03d a59a dd3d e235 143e 8959 e23d
000001b0: 89bc 7cbc 7c7a 45be f7d4 37bc 0fdc 6bbd
000001c0: 3b21 353d f312 b0bc c34b aebd b172 92bd
000001d0: abb5 903c 3279 973d c06f f63d 54e8 fdbc
000001e0: e52c 773d e564 59bd 4bfc 23bc d666 22bd
000001f0: f2da 83bd 533c 3abc 309b 6abd b273 76bc
00000200: 0fc6 ab3c 91e4 e23d 6fd1 b43d 8e4e 9fbd
00000210: 9c1d 42bd 207b 1abd e6ec 44bd 1ba3 6db9
00000220: ef8f e7bc 38c7 9bbd 0749 c9bd ded9 0b3e
00000230: 8522 1f3e 6a2d 45bd a9c7 64bd 5f95 c33c
00000240: 972e e9bc 02df 283d 5947 15bd 87b1 e0bb
00000250: 6ad3 80bc 6b8c 8c3d 1e8d 293e 21ba aa3b
00000260: 9ceb 493d 9f90 f73b c67e ac3d e30a 1f3e
00000270: a97a f13c ee0d 8fbd 82ef 63bd 1936 9a3d
00000280: 7902 f33d 4fc2 293d ce10 f73c fd2b a2bc
00000290: 18f9 e23c c5e4 9d3d 05e4 2b3d 307c 643b
000002a0: fedb 913c e2a2 853d 0c4b 733d f98c 263c
000002b0: 804d 80bc 169a 43bd cdc6 313c 5692 2d3c
000002c0: c0df 053d 1f0d d6bb 8350 f6bc 8559 973c
000002d0: ea8e b63d bd22 f5bd b443 4cbd 043e 4ebd
000002e0: 3b93 edbc 0a32 233c 4149 7a3b 485c b2bd
000002f0: 2207 cfbd 668e 623d 3bdc 80bc ce4a 193c
00000300: 21e5 713c ab93 fc3d 4fb3 ec3d e219 aa3d
00000310: 72db ae3d d35c 983d acf0 42bc 8d5a 8ebe
00000320: 117e e3bd 114e cdbd 3002 70bd 7eb4 86bd
00000330: d103 5bbe 493b f8bd a775 1abe fa26 8abd
00000340: 96a0 0d3e 8330 8fbe d702 11bc d025 933d
00000350: ad4d e23c 3379 ae3d dca0 6f3c 5fc1 a93d
00000360: 27a8 5b3d 4662 40be 7129 01be 81cf 813e
00000370: 6610 00bc b7ae ee3d e444 f43d 0586 703d
00000380: c978 003d 1267 cdbc 7030 7e3e 69d4 913e
00000390: 0002 3fbd 332b 67bc e2aa 4f3d 5320 163e
000003a0: a8aa 7cbb 899c 30be df20 cabe 257c a8be
000003b0: 17b4 d2bd 0dbc 6a3e 407f c93d 093c 86bd
000003c0: 4932 ef3a 41ea 74bd facb f93c 8e57 82be
000003d0: 5063 adbd 5e84 56be 6973 97be f3c2 10be
000003e0: c15b fabc 4bfa 493d a104 993d f052 d5bd
000003f0: ecaa eebc 4eb3 42be e8f4 cfbc b139 73bc
-0.2262746 -0.058621205 0.37033615 0.24315807 0.15888393 0.1735768 0.22071265 0.24293289
0.20845158 -0.20989187 0.0074538523 0.267946 0.14263278 -0.15036708 -0.09535149 -0.074652754
-0.027054114 0.035324145 0.020417312 0.10925168 0.25105932 -0.045060657 -0.0019852184 -0.10027904
0.04953568 0.03441491 0.04630427 0.049340434 -0.029644113 -0.013699403 0.12183543 -0.09428804
-0.11452814 -0.12644623 -0.04559692 -0.09788642 0.04759246 0.09464819 -0.013603207 0.03644861
0.05164786 -0.16765246 -0.039331503 -0.13526788 -0.0064983624 -0.01319547 0.116097964 -0.049201306
-0.0218839 0.07296684 0.068073265 -0.1468416 -0.1056346 -0.1979148 -0.1726485 -0.1897478
0.04313091 -0.013796355 -0.08410619 -0.0011240254 0.10181171 -0.08294285 0.013454768 -0.058575
-0.027266867 0.0034911323 0.030728085 -0.045452148 -0.12941211 -0.03546019 0.21521953 -0.012488354
0.0017097758 0.05767228 -0.010345829 0.017768636 0.05941062 -0.007840392 -0.09962619 0.09079517
-0.1718931 0.13101256 -0.12924212 -0.0213279 -0.03027444 -0.012807751 0.013644278 -0.12456511
-0.01365938 -0.073614135 -0.5283418 -0.21921778 0.009605851 -0.06340221 -0.09400688 -0.112225555
-0.01583163 -0.012881918 -0.06856239 -0.06297707 -0.25664657 0.034730628 0.06830973 0.097902104
0.10188442 0.10820512 0.1447368 0.11052234 -0.01542581 -0.19285005 -0.011220208 -0.05758291
0.044221144 -0.02149341 -0.08510544 -0.07150782 0.017664751 0.07396163 0.12033033 -0.030994572
0.06034555 -0.053074736 -0.010008882 -0.039648853 -0.06438245 -0.0113669215 -0.057276905 -0.015042232
0.020968465 0.11078752 0.08829009 -0.07778655 -0.04739152 -0.037715077 -0.048077486 -0.00022662843
-0.028266875 -0.07606357 -0.09828382 0.13657328 0.15540512 -0.048139013 -0.055854473 0.023874937
-0.028464599 0.0412283 -0.036444996 -0.0068571004 -0.01572581 0.0686272 0.16557738 0.0052101766
0.04929696 0.007555082 0.084226176 0.15531497 0.029477434 -0.06985079 -0.055648334 0.075298496
0.11865706 0.041445073 0.03015938 -0.019796366 0.027706668 0.0770965 0.041965503 0.003486406
0.017805096 0.06525208 0.059397742 0.010165446 -0.015661955 -0.04775437 0.01085062 0.010593971
0.032684088 -0.006532326 -0.030067688 0.018475303 0.089139774 -0.119695164 -0.049869254 -0.05035211
-0.029000869 0.009960661 0.0038190635 -0.087090075 -0.10108782 0.055311583 -0.015730014 0.009356214
0.014764101 0.12332853 0.11557638 0.08305718 0.085379496 0.0743958 -0.011898201 -0.2780346
-0.1110803 -0.100246556 -0.058595836 -0.06577395 -0.21388175 -0.12120683 -0.15083943 -0.067457154
0.1383079 -0.279667 -0.008850775 0.071849465 0.02762493 0.08519211 0.014625754 0.08288836
0.05362716 -0.18787488 -0.12613465 0.25353625 -0.00781641 0.11654418 0.11927202 0.05872156
0.03136519 -0.025073562 0.24823165 0.2848237 -0.046632767 -0.014109421 0.050700076 0.14660768
-0.0038553867 -0.17247213 -0.39478204 -0.32907215 -0.10288256 0.22923298 0.09838724 -0.065544195
0.0018249239 -0.059793714 0.030492771 -0.25457424 -0.08466208 -0.20948932 -0.29580238 -0.14136867
-0.03056133 0.049310964 0.07471586 -0.1041621 -0.029134236 -0.19013712 -0.025385335 -0.014845298

fc1.bias f4 [200]
00000000: 3db5 2abe 9b28 f13e 15f7 883c dff2 263e
00000010: 099f 31be c2b9 42bd 4aea d0bc 19aa 2c3d
00000020: 2c4e c5bb 6eae 05bd c429 1d3c 5115 41bb
00000030: d0b3 5ebd d17e 343c 9250 4ebd 9e8b 65bd
00000040: b06f 47be 7cc7 58bd 0b91 6d3c 5cf0 d2be
00000050: b3fa 8ebd 2952 0abd e43f f2bc 8cc3 3bbd
00000060: 82a8 2cbe 3b2a edbc eef9 d9bc dc25 27bd
00000070: 8f6f a83d 9a95 5bbd 84c6 ee3e b0dd d13d
00000080: 5fcd 2e3d dd5c a3bb bec6 d9bd 3187 993a
00000090: 0530 b43d ffad 013d a544 1bbe 7994 9cbc
000000a0: f601 9ebe e2a2 083d d1e5 b2bd f901 35bd
000000b0: 8f86 e3bc fbcd d53d f759 c53c 90af a23d
000000c0: c4c7 e9bd 001d 11bf 982e 8cbe 3ff3 81bd
000000d0: 67c3 5bbe d6ef 0ebd a4eb 0fbe 1c19 cabd
000000e0: d1b1 4abd 583d fd3c fce3 88bd 459f 76bd
000000f0: 3e96 00bb 5f83 94bd 5423 c23c c2e8 34bf
00000100: 8221 f13b 51f3 99bd 4492 d3bd 0cde ce3c
00000110: 0077 9b3d d3f9 0ebd 2c71 58bd e457 41be
00000120: 1c98 35bd ad2c ffbc a081 95bd b9ae 77be
00000130: dcd0 a7bd 82ed 86bd e0d7 0cbd d27f 7ebd
00000140: 4293 0bbd f608 1e3d f571 1b3e 1a48 35bd
00000150: 30b7 21be 4282 0bbe d286 a63e 2ada 9d3d
00000160: 7c95 61bd e138 0c3e 2ebe 893e a9b1 e23d
00000170: cadc 543e adc7 d23b 957b 05be 145c 07be
00000180: 2f4c ab3c 52b7 06be 5151 4ebd 2db1 a53e
00000190: a235 6a3d 4271 1dbd ffcb cdbd f027 f43d
000001a0: 0ec0 283d 487b a53c 17ba 4fbe 52d1 a5be
000001b0: 3b4a 47bd d7bd 75be 6c3b 013f b8ad be3d
000001c0: 905f 75bd 9bdc 0e3d cf6e a9bc 1e31 883c
000001d0: 8265 113e 4127 10bd f663 68bd f332 84bd
000001e0: 3ce0 22bd 7c89 79bd b147 dbbc 47b8 9ebd
000001f0: b10d 2dbd 6310 8c3e 11cb 5d3d 4661 89be
00000200: 67c4 87bd 3ce0 c2bd ebf4 25be 73b1 93be
00000210: c8cf 553e 4e76 25bb 6106 6cbd 26a5 80bd
00000220: 8999 65bd c679 48bd a5ad 84bd 63cd 3abe
00000230: 9bbd c83c 920d 63bd 1e3a 8bbd d239 27bd
00000240: 864d 1fbd 8050 8abc cb2e 903c f31e b1bc
00000250: 87f5 25bd 5672 d43e 6c38 00bc 93fc 9bbd
00000260: 99a9 afbd 38a3 5abd d16e 2abd 05ee a3bc
00000270: ab5b e8be e1b6 1dbd 6835 34ba 94db 3abd
00000280: c132 30bd f676 2c3b 4940 8cbd e0be 41bd
00000290: 5ba4 16be 8aa7 613e abcb 433e fc31 05bc
000002a0: ba09 44be 7bd3 3fbd 84ed f93c cc5a 4fbd
000002b0: 60d9 0c3e 8d36 683e 42b2 45bb 4c00 023d
000002c0: 3b01 b1bd c8de 88bd 8472 61bc 02ec 203e
000002d0: bdce c43e 96f0 45bd 4621 753e ea5c b3bd
000002e0: 2de5 483f 458d 16be db43 07bf 8dc9 5a3e
000002f0: f141 18be 418b 003e 2e10 eb3e fce4 aa3e
00000300: 4223 2dbd 49b2 c03e a6c5 c9bc 5ed5 2bbd
00000310: 9529 b63d 6c8a bfbd 9707 323c 5356 51bd
-0.166707 0.47101292 0.01671938 0.16303585 -0.17345823 -0.047540434 -0.025502343 0.042154405
-0.0060212817 -0.032637052 0.009592477 -0.0029462168 -0.0543707 0.0110165635 -0.050369807 -0.056041352
-0.19476199 -0.052924618 0.014499913 -0.41199005 -0.06981411 -0.03376976 -0.029571481 -0.045840785
-0.16861156 -0.028950801 -0.026608434 -0.04080759 0.08224403 -0.053609468 0.4663583 0.10247362
0.042676326 -0.0049854354 -0.1063361 0.0011713264 0.087982215 0.031660076 -0.15162905 -0.019113766
-0.3086087 0.033358462 -0.0873524 -0.044191334 -0.027774123 0.10439678 0.02409075 0.07943642
-0.114150554 -0.56684875 -0.27379298 -0.06345224 -0.21461259 -0.034896694 -0.14054734 -0.098680705
-0.049485985 0.03091304 -0.066841096 -0.060210485 -0.0019620801 -0.072516195 0.023698486 -0.7066766
0.007358731 -0.07517112 -0.10330632 0.025252365 0.07591057 -0.03490622 -0.052842304 -0.18881184
-0.044334516 -0.031149233 -0.07300115 -0.24187745 -0.08194134 -0.0658827 -0.034385562 -0.062133618
-0.034075983 0.038582765 0.1518019 -0.044258215 -0.15792537 -0.13623908 0.32524735 0.07707627
-0.0550742 0.13693573 0.26902908 0.11069042 0.2078735 0.0064324946 -0.13035424 -0.13218719
0.02091035 -0.13155869 -0.050370518 0.32361737 0.057180054 -0.03843809 -0.10048675 0.1192168
0.041198783 0.020200387 -0.20285831 -0.3238626 -0.048654776 -0.239982 0.50481296 0.09310478
-0.05990559 0.034878355 -0.02068272 0.016624983 0.14198878 -0.035193685 -0.056735955 -0.0645503
-0.039764628 -0.06092213 -0.026767584 -0.07749992 -0.042249385 0.27356252 0.054148737 -0.26832026
-0.06629258 -0.095154256 -0.1620671 -0.2884632 0.20880044 -0.0025247517 -0.05762327 -0.062814996
-0.056054626 -0.048944257 -0.064784326 -0.18242411 0.024504473 -0.055432864 -0.06798194 -0.040826626
-0.03889229 -0.016884089 0.017600438 -0.021621203 -0.040517356 0.4149348 -0.007825952 -0.07616534
-0.0857727 -0.053378314 -0.04160959 -0.020010957 -0.45382437 -0.038504485 -0.0006874413 -0.045619562
-0.043017153 0.0026316023 -0.06848199 -0.047301173 -0.14711134 0.22036567 0.19120662 -0.008129593
-0.19144335 -0.046832543 0.030508764 -0.0506237 0.13754797 0.2267706 -0.0030166064 0.031738564
-0.08642813 -0.06683117 -0.013760213 0.1571503 0.3843898 -0.048325144 0.23938474 -0.08757956
0.78474694 -0.14702328 -0.52837914 0.21365948 -0.14868905 0.12553121 0.45910782 0.33377826
-0.042269953 0.3763602 -0.024630379 -0.04195153 0.0889465 -0.09352574 0.010866067 -0.051107716

fc2.weight f4 [100, 200]
00000000: 416a 8c3c a802 86be adc6 ffbd 5175 5bbe
00000010: 0ee4 1dbe 6449 b8be ece6 2e3d 915c a2bd
00000020: 37eb a63c cfd2 a53d b370 b13d d17c e9bc
00000030: 2a4e 8dbd 00f4 28be 1768 31bc e88e a13c
00000040: c41e 033c b35e 81bc 7523 0bbc 447e b7bd
00000050: 3065 41bd 334c 65bd d37e f9bd 4847 e6bb
00000060: 3387 423c 118d 50bd 5dc3 833c 8db2 3abc
00000070: 7233 28be ab5b 5fbd cb41 06bd 245a 513b
00000080: 85d9 12be 2152 5a3d 9d1d 34bd 5084 36ba
00000090: b97d 4fbc eead 6ebe cb51 8b3c 5bcd 773c
000000a0: 0c7c e5bd d236 003e 48f7 a4bc 447a bcbd
000000b0: 8fe9 3fbe c2d5 42be 8147 20be 96d4 97bd
000000c0: 9669 c4bd 4a33 3cbe 8ca4 2c3d daff 94bc
000000d0: 773e b7bd 9c7a 84bb 87b0 4e3e eefc 4dbd
000000e0: 4bee 24be 629e 92be d31e a93c 365b 4fbb
000000f0: 2bc6 83bc bd93 03bb 2fae 07be adb5 15be
00000100: f1b7 66bd 4a0f 1fbe 9a51 2dbd f7b3 753c
00000110: 8441 48be d3d4 bbbd 70cc 3cbd 1322 fcbc
00000120: a476 113d 6e2a 3ebd f7fd 8cbd 0b7d 6cbe
00000130: 28a0 1c3c 442e 4c3d 18bb 2bbd e154 a33b
00000140: 0841 8a3c ec6c 69be 4647 60bd e513 7abd
00000150: 520b d4bc 2710 a4bd 631a 13be e9c4 2dbe
00000160: 7b01 89bd fd2f 90bd 61b2 fdbb ddf5 19bd
00000170: 4d5b 7dbd 3bbc 28bc 5589 99be 3632 303c
00000180: c934 03be 5ce7 1bbd 4f2e 57bc 01ef 9bbd
00000190: 64e6 2bbd 5c08 b93c 71ab 80bc f2ac a9bd
000001a0: 642b af3c 96fa 143c 4b96 0c3c 1e5e eabd
000001b0: d2ab 29bd 24ab afbb e2b0 73bd 03e5 d63d
000001c0: 652e 8cbc 70e5 68bd fcff 703d e0e9 073d
000001d0: 5df6 4d3d 3390 343d ea3b 60bd 41ea e4bb
000001e0: 8c14 3e3c 8690 4d3d 7d9d b7bc 5463 593d
000001f0: e87e 70bc b032 4abd 8268 7d39 897e b2bd
00000200: 4675 a03d 8530 37be 4441 36bc abc9 1c3e
00000210: c880 b1be d5ee acbc 0909 24bd 93c9 92bc
00000220: 90e3 183d c41c 4bbd c01c 34bd 378c b83d
00000230: 9431 9dbd 2c5d 363b ec07 16bb f218 013d
00000240: 2974 563c 9429 193d 68f5 853c 11fe 89bb
00000250: e1ae 8e3d e3a8 393d 2a85 e9bb 6edc 1b3c
00000260: 442d 373d b79a 8ebd 70d4 f1bc 1683 aabc
00000270: 7d14 83bd e1af d63c 0ad2 e5ba d6ff 32bd
00000280: ae1b 683d 923a 42be 9325 13bc d6f9 a53b
00000290: 0ebc a4bd 9e2d 7cbd 0743 39bd 3d68 8bbe
000002a0: fa8a 96bd 6095 303d a9db dbbd 23a8 483d
000002b0: 43f6 74bc 033e ffbd b2fb 30bd 50b7 5d3d
000002c0: 1bd8 263d 608c e53c caa4 7ebe 24b5 363c
000002d0: d401 e5bd 2692 ecbd 552c 53bd 9d53 94bd
000002e0: 02aa 283e 9236 87bd 8ff8 57be 5c03 55bc
000002f0: 3d1a a53d 4363 4b3d 80db 58be 8f54 51bd
00000300: c366 8bbd 4d63 ebbd 998a f03d f6d9 3ebd
00000310: 0363 23be 3736 46bd e274 693d 1440 30be
00000320: a2ac 9cbe fc21 89ba f582 5f3d ee01 09bd
00000330: 88a1 acbe 3370 1bbf 5caa 733d b21c 76be
00000340: 0efd 51be 899e d1bd d5d3 7f3e 44c4 813d
00000350: 5cd5 6b3d 3243 a9be 4d10 2fbd 243a b7bc
00000360: 1c1b 86bd f3c6 683c 29f4 1a3d ec52 0fbf
00000370: 90cc 043c d2c0 c5bd 99fa 9fbd 98ad 163b
00000380: 903d 50be e1aa 80bd 03d6 683d d28c 43bd
00000390: c240 603c 7648 38be 9782 91bd f5fc 0fbe
000003a0: 5f32 dd3d a5d4 643e 2993 003c 3f8b c23d
000003b0: c2c5 843d af0b ee3d 3085 65bf 3804 6a3d
000003c0: ae63 1a3e 3646 a93d d5d7 bf3c eaec 96be
000003d0: 9e43 443e 0831 9cbe d857 3f3d f1a2 a0be
000003e0: 9e77 bb3d cc22 e1bc eaa9 07be 7caf 7ebd
000003f0: d3da 3bbd 7597 57bc e57c a5bc 9ae1 37bd
0.01714051 -0.26173902 -0.12489066 -0.21431471 -0.15419027 -0.35993493 0.042700693 -0.07927812
0.020375831 0.08096849 0.08664074 -0.0285019 -0.06899674 -0.16499329 -0.01082804 0.019721463
0.008002941 -0.015792226 -0.00849234 -0.0895963 -0.04721564 -0.055980872 -0.12182393 -0.0070275404
0.011873054 -0.05091578 0.016084367 -0.011395109 -0.16425875 -0.05453078 -0.03277759 0.0031944597
-0.1434079 0.05330098 -0.043973554 -0.0006962465 -0.012664252 -0.23308536 0.017006775 0.015124644
-0.11205301 0.12520912 -0.020137444 -0.09203008 -0.1874144 -0.19026855 -0.15652277 -0.074135944
-0.095904514 -0.1837894 0.04214911 -0.018188406 -0.08947461 -0.0040429365 0.20184527 -0.05029004
-0.16106527 -0.28636461 0.020644581 -0.003164006 -0.016085705 -0.0020077073 -0.1325004 -0.14620085
-0.056327764 -0.15533176 -0.04231415 0.01499652 -0.19556242 -0.091714524 -0.046093404 -0.030777967
0.035513535 -0.046427183 -0.068843774 -0.23094575 0.009559669 0.04984881 -0.041926473 0.0049844836
0.016876712 -0.22795457 -0.05475547 -0.06105413 -0.025884304 -0.08010893 -0.14365534 -0.16969647
-0.066897355 -0.07040403 -0.0077422117 -0.03758799 -0.06185465 -0.010298784 -0.2998759 0.010754159
-0.12813105 -0.03806244 -0.013133599 -0.07613946 -0.041967764 0.022586994 -0.01570675 -0.0828494
0.021382995 0.0090929475 0.0085807545 -0.11443733 -0.041423626 -0.0053609777 -0.05949486 0.10492899
-0.017111966 -0.056859434 0.058837876 0.033182025 0.05028378 0.04408283 -0.05474464 -0.006985933
0.011601578 0.050186656 -0.022413963 0.053073242 -0.014678694 -0.049364746 0.00024166892 -0.08715541
0.07834868 -0.17889602 -0.011123959 0.15311305 -0.34668565 -0.021109978 -0.04004768 -0.017918384
0.037326396 -0.04958798 -0.04397273 0.09011119 -0.07675472 0.002782653 -0.0022892905 0.03151793
0.013089218 0.037393168 0.01635237 -0.0042111953 0.06966949 0.04532708 -0.00712647 0.009513004
0.044720903 -0.06963103 -0.029520243 -0.02081446 -0.06400392 0.026206912 -0.001753391 -0.043701015
0.056667022 -0.18967655 -0.008981126 0.005065183 -0.08043681 -0.06156694 -0.045229938 -0.27227965
-0.073507264 0.043111205 -0.10735256 0.048988473 -0.0149512915 -0.12463 -0.043208785 0.0541299
0.040733438 0.028021038 -0.2486755 0.011151586 -0.11181989 -0.11551313 -0.05155595 -0.072425105
0.16471103 -0.06602205 -0.21090911 -0.013001289 0.08061645 0.04965521 -0.21177483 -0.051106032
-0.068067096 -0.114935495 0.117451854 -0.046594582 -0.15955739 -0.048391547 0.056996234 -0.17211944
-0.30600458 -0.0010462399 0.05456825 -0.033449106 -0.3371699 -0.6071808 0.05948864 -0.24034384
-0.20506689 -0.10235316 0.24983151 0.06336263 0.057576522 -0.33059078 -0.042740155 -0.02236659
-0.065481395 0.014207589 0.037830506 -0.55985904 0.008105412 -0.09655918 -0.078114696 0.0022991654
-0.20335984 -0.062825926 0.056844722 -0.04774172 0.013687314 -0.17996392 -0.07104986 -0.14061339
0.10800623 0.22346742 0.007847586 0.09499215 0.06483032 0.11623322 -0.89656353 0.05713293
0.15077087 0.08265345 0.023418346 -0.29477626 0.19166419 -0.30506158 0.046714634 -0.31374314
0.091536745 -0.027482413 -0.13248411 -0.062179074 -0.045862984 -0.013158669 -0.020201156 -0.044892885

fc2.bias f4 [100]
00000000: 2131 2abe 3beb efbd 8e63 debe f769 4b3e
00000010: 032d fcbe 29a9 c9bc f407 1fbf 3285 183b
00000020: 2485 05be 9050 0c3e 1648 c83e 4c12 003c
00000030: d830 113d 550c e43e a209 02be 481a e5bc
00000040: f5d7 9a3d e967 dcbd cb2d 883e 5e6b 913e
00000050: deaf 123a 2fee 84bd feb0 e73c f846 dabc
00000060: 2874 d6bd 46c7 67bd c354 bc3e 9db5 d6bd
00000070: 0405 8c3e 1739 78bc 8074 e0bd 51fb 1c3e
00000080: b46b 0fbe 568d 1bbc 4530 aebd b90f 883e
00000090: 1e82 a83d 6574 5dbe bb4a b13d 181a 8a3d
000000a0: 46e7 033e 2b12 393e 4c6e 573e 9075 b03e
000000b0: 970c 743e 945a d7bd e1f0 9a3d d01f 6a3e
000000c0: 83bd 11be a828 7cbd 23bf 14be e901 803e
000000d0: 0db3 533d 46c3 1dbd 2228 0bbe 587e c33e
000000e0: 93b2 f2bd b0da 5f3d 44d5 ee3d adc1 e3be
000000f0: 0d3a cf3d 353f 15be 2c52 e7bd f613 653e
00000100: 66e5 adbd 2d62 bfbc 4a26 adbd e0bc 9bbd
00000110: ecb0 123e b9e9 e7be b6e5 a0be 60f4 f3be
00000120: ef60 be3e eeac cb3d 95cd 82be 4ba0 3c3e
00000130: 252b c23e d311 d8bd 93b2 5b3c 7569 453e
00000140: 4a1e 353e ec80 f7bd e731 243e 8d2f f13c
00000150: 3591 5a3e 291b 263e 719e efbe 2e0a a0be
00000160: 73b9 69bb c056 3abe 11a7 ddbd 9ee0 c53d
00000170: e0a1 803e 1a11 593e c3c8 94bd e6af 7fbc
00000180: 5b35 0bbf c5df 9e3e 447b 87bd 9396 9ebd
-0.16620304 -0.117147885 -0.4343533 0.19864641 -0.4925309 -0.024616795 -0.6212151 0.002327275
-0.1303907 0.13702607 0.39117497 0.007816862 0.03544697 0.4454066 -0.12698987 -0.027966633
0.07560722 -0.10762007 0.26597437 0.28402227 0.0005595664 -0.064907424 0.028282639 -0.026645169
-0.10471374 -0.056586526 0.36783418 -0.10483859 0.27347577 -0.01515033 -0.109597206 0.15330245
-0.14005929 -0.009494146 -0.085053004 0.26574495 0.08227943 -0.21626432 0.08656832 0.06743258
0.12881193 0.18073337 0.21038169 0.34464693 0.23832928 -0.10515323 0.07565475 0.22863698
-0.14232449 -0.06156221 -0.14526038 0.25001457 0.051684428 -0.038516305 -0.13589528 0.3818233
-0.118504666 0.054651916 0.11661771 -0.444837 0.10118494 -0.14574893 -0.1129497 0.22370896
-0.0849102 -0.023362244 -0.08454569 -0.076043844 0.14325303 -0.45295504 -0.31425256 -0.4764738
0.3718333 0.09945093 -0.25547472 0.18420522 0.37923542 -0.10550275 0.013409275 0.1927851
0.17687336 -0.12085137 0.16034661 0.02944162 0.21344455 0.16221298 -0.4680057 -0.31257766
-0.0035663515 -0.18197155 -0.10822881 0.09661983 0.251235 0.2119793 -0.07264855 -0.015605902
-0.5437829 0.31030098 -0.06615308 -0.077435635

fc3.weight f4 [1, 100]
00000000: b03e 823e d8fd 7b3d 8e76 7cbd bcc1 c5bd
00000010: 2a65 c2bd 5436 cdbd ae2b 19be 30d8 393e
00000020: 4a39 b9bc b06c 063d 1904 a0bd eafc 183d
00000030: 2aab 8f3d 5840 dfbd 4a10 ec3b a4a2 2cbd
00000040: ccb1 f33d 71dc b3bc cb65 813d 472f 34bd
00000050: a8a4 963a 1eee 153d 0125 94bc 050d beba
00000060: 6ee2 1d3d 186e 12bc 03b5 d5bd 60cc c8bc
00000070: 7c5c 28be 7d57 c6bb 833d b7b9 a323 40bd
00000080: 4788 813c 9204 313d 3a31 bcbb 2c08 2b3d
00000090: 8b76 5d3e 1e54 11bd 3f8e 503d 68af b13b
000000a0: 1881 3b3d 1bb6 53bd 485b 43bd 99f1 0dbd
000000b0: 15fd 6dbd aead 1c3a 782c ccbc ee7c fd3c
000000c0: dd1a 963d b6a0 763c b6d2 80bd f3bd 2ebc
000000d0: 77bb 493d 7ddc c3bb 3709 403e 8304 fabd
000000e0: f150 c0bb 5e93 60bd 5ceb ae3d 3df4 05be
000000f0: 20cb 34bd dc06 f6bc 0269 87bd 3079 c93d
00000100: 1f49 44bb aece 77bc b71f 7eb9 096e c9bd
00000110: e4d6 3b3d 0bea 1cbe eec5 ffbc 6f87 acbd
00000120: 33f7 d03d e558 fe3c e695 2abd f60f 9f3d
00000130: 4a67 f2bc e563 a43d c5d7 cc3d 24db 23be
00000140: 5cd2 7a3d 4647 9539 18ff d13d b8c2 923b
00000150: 5cc5 98bc 4cc7 543d 8cb5 adbd 2362 5d3d
00000160: 3b82 f33d e08d 3dbd cceb 3dbd fadc ee3d
00000170: 8cdc e23d 39b2 123e b948 c8bc 7d30 8ebc
00000180: c7ce ebbd 3d9f b7bd 0e86 1c3b a842 9a3d
0.25438452 0.06152138 -0.0616365 -0.096560925 -0.09491952 -0.10020128 -0.14958069 0.18148875
-0.022610325 0.032818496 -0.078132816 0.037350573 0.07015069 -0.109009445 0.0072040902 -0.042147294
0.118991464 -0.0219557 0.063182436 -0.0439904 0.0011493163 0.03660404 -0.018084051 -0.001449973
0.03854602 -0.008937381 -0.10434916 -0.024511516 -0.1644153 -0.00605291 -0.0003495031 -0.046908986
0.015812052 0.04321725 -0.005743173 0.04175584 0.21627252 -0.03548061 0.050916906 0.0054225214
0.04577741 -0.05168734 -0.047694474 -0.034654234 -0.058102686 0.0005976808 -0.024923548 0.03094336
0.073293425 0.015052965 -0.0629019 -0.010665405 0.049251046 -0.005977212 0.18753515 -0.12207892
-0.005869024 -0.05482804 0.08540985 -0.13081451 -0.044139028 -0.030032568 -0.066118255 0.09837568
-0.002995081 -0.01512496 -0.00024235142 -0.09835441 0.045859233 -0.15323655 -0.03122231 -0.084242694
0.102033995 0.031048248 -0.04164686 0.07766716 -0.029590268 0.08026866 0.10002092 -0.16001564
0.06123577 0.00028472597 0.102537334 0.0044787787 -0.018648796 0.051947877 -0.08481893 0.05404867
0.11890074 -0.04627788 -0.04636745 0.11663242 0.11077222 0.14325799 -0.02444874 -0.017357105
-0.11514049 -0.08965919 0.0023883614 0.07532245
