Models/model_MLP_MicroNet.pth (torch, 289519 bytes, 5 tensors)

fc1.weight f4 [120, 512]
00000000: 3c77 053c 9b06 01ba 314c 3fbd e9e3 d43b
00000010: 8b02 13be 1589 66bc 5ba4 813d 5b8d 9fbd
00000020: bea7 633d e07a 23bc e8df 883c ec8c 2abd
00000030: 232e 233b a780 31bc d502 de3b b55e 86bd
00000040: f5bf e4bc bb6e ac3c b362 7ebd 7395 31bd
00000050: 511c 52bd e7b9 99bc 9e60 7bbc 3882 ea3b
00000060: 4881 7e3d a102 043c b2a3 5abd 4002 33bd
00000070: b5ae e83c 5e00 24bc b4ce 8b3b 0095 2abd
00000080: 2d5d 953d 39b8 3e3d f9f9 c53c 4057 a33b
00000090: 3120 cabc f518 003d 8300 363d 7f5a 1f3c
000000a0: a4cf c43c f889 ea3c 1aa1 97bd d4a9 0d3d
000000b0: d2ad f63c 6115 ef3c eb8e bbbc c962 70bd
000000c0: 6300 17bd 1afb bdbc 512a 1bbe a234 1ebd
000000d0: e6d0 6dbd 5453 e33c 63b9 88bd e0fa 84bd
000000e0: 4794 1dbd 40ad 6b3d a602 81bc 2a5c d93b
000000f0: d9dd 1abd 7b19 a3bd 0105 27bd 0923 23bd
00000100: c653 a93c 0a6c f13c 7bef 86bd e1ab a4bc
00000110: a136 833d bc45 f1bb bb69 f1bd cce7 00bc
00000120: c7b2 3b3d 79fd 78bd 927e c9bb 5df9 0abd
00000130: 8456 ebbc bb54 9e3c 1b63 61ba 5993 23bd
00000140: d173 8eb7 ae32 c63c 05dd 073d 40e9 cebc
00000150: 12dd 6e3c 38d5 52bd e29b 03bd 0000 a3bc
00000160: cf34 413d 0ec2 743c 91ff 393c cf5b 293d
00000170: e0d7 f13c 2454 853c 7b03 42bd 8557 52bc
00000180: bfa2 1e3c d965 75bd a53c 9cbd ed3f 303d
00000190: 1936 df3b b0ab 2bbd a592 33bc b521 44bc
000001a0: a21a c3bb 9fe9 b0bd ee88 20bd 61e0 2cbd
000001b0: 4fda 983d c328 2fbd d87f 8a3c 1b37 92bd
000001c0: f50e 4bbc 2d97 543a e500 0fbd f61c 91bd
000001d0: 87f1 c6bc d912 123c 8f64 433c 049c 6e3d
000001e0: 3101 063d 0bab 12bd f053 84b9 17dd 6f3b
000001f0: 3320 adbc 8365 06bd a1bd 58bc 3871 42bd
00000200: dea5 5fbd 9854 56bc e2a6 5abd c3e7 a3bd
00000210: e746 873d 5c84 353d 6a58 c0bb aca5 d1bc
00000220: d56c 333d 8422 39bc 27e1 0e3d 8eb5 703d
00000230: 469f a8bc 2109 0cbd 5b11 9cba b65b 43bd
00000240: 2e9c fabc e6c0 9d3c aaf2 cd3c ed0f 5dbc
00000250: 3efb 5fbd 0e78 833d d7d1 a0bc baef 69bd
00000260: 1850 adbd 8846 183d 8398 43ba 17e5 c6bd
00000270: 01fd b53c 7e56 6ebd 976f 2dbd 58d7 b9bd
00000280: bcc0 47bd 052e 33bc 2ad0 493c 62a2 7a3d
00000290: a45d 61bc 0983 71bd 0d99 95bc 4785 9bbd
000002a0: 5d7a 64bc ad51 9fbd a228 d7bc 436c 19bd
000002b0: 5d89 c13c 56b5 a53d 8d60 4b3d 808f 2dbd
000002c0: 1866 aebc b99f f13c d0e3 e4bc 3bfb a4bd
000002d0: 48bc 53bc 89c1 dabc 54d4 623d 3537 97bd
000002e0: 8474 bebd 2320 b1bb 36ad 15bd b0ca 89bd
000002f0: 7948 bbbc 56fe 053b be43 fdbc 4ee3 2b3d
00000300: ef6f 7d3d 1f1d 91bd 8255 3a3c c6b7 31bd
00000310: f347 e83c 6b26 f9bc 9eea f5bb 3292 77bc
00000320: cc95 5abc a401 863c c4a3 523d 6f3c d33d
00000330: 2db7 e5bc 0da7 ea3b e440 b83b db85 5abd
00000340: 63c9 903c 8280 bbbc 0565 2dbd feaa bbbd
00000350: b743 853c 81ce d23c d783 02bd e8cb 3c3d
00000360: 8224 12bd 10dd 6ebd 9eff 40bd 3dd6 96bd
00000370: c7eb 14bd 6e89 1bbc 811a 8cbb fc56 bdbc
00000380: fe8e 7f3d 3588 0e3d 36aa 393c 50ae 15bd
00000390: 76c8 ebbb b179 e6bc 9e1e e637 88e8 3bbd
000003a0: b572 acbd 7784 e63c f216 0e3d 31ac 46bc
000003b0: 0c7a c1bc 6ad9 523c a2f1 d63b cae0 a1bc
000003c0: cd92 78bd dd43 a7bb adaa b7bc 6016 c6bc
000003d0: cb28 69bc 5d3d 7c3c 69ec cc3a 3ae8 2cbd
000003e0: 2230 bebd c11f a83c 1968 933d f5c8 493d
000003f0: 5442 a4bc 7669 bcbd 45bf d8bc 9f0c 4fbd
0.0081461035 -0.0004921944 -0.04670352 0.0064968956 -0.14356439 -0.014070769 0.063301764 -0.07790633
0.055579893 -0.009978026 0.01670833 -0.0416383 0.0024899326 -0.010833896 0.00677524 -0.06561033
-0.027923563 0.021048894 -0.062105846 -0.043355417 -0.051296536 -0.018765403 -0.01534286 0.0071566366
0.06213501 0.008057267 -0.05337877 -0.043703318 0.02840362 -0.010009853 0.0042665843 -0.041646004
0.072931625 0.046562407 0.024167048 0.0049847662 -0.024673553 0.0312738 0.04443408 0.009726166
0.024024792 0.028630242 -0.074037746 0.03458579 0.03011218 0.029184999 -0.022895297 -0.05868796
-0.036865603 -0.023191024 -0.15152861 -0.038624413 -0.05806055 0.027749695 -0.06675985 -0.06493163
-0.038471486 0.05753827 -0.015748333 0.0066333013 -0.037809227 -0.079638444 -0.040776256 -0.039828334
0.02066983 0.029470462 -0.06588646 -0.02010149 0.06406904 -0.0073630493 -0.117877446 -0.007867765
0.045824792 -0.060788605 -0.0061491216 -0.033929218 -0.028727777 0.019327512 -0.0008597837 -0.039935444
-1.698165e-05 0.024194088 0.033169765 -0.025257707 0.014579074 -0.051472872 -0.032131083 -0.019897461
0.047169503 0.014938844 0.011352436 0.04134732 0.029521883 0.016275473 -0.0473666 -0.012838249
0.009682356 -0.059911583 -0.076287545 0.043029714 0.006811869 -0.04191178 -0.010960256 -0.011970927
-0.0059541026 -0.0863831 -0.039193086 -0.042206172 0.07463514 -0.042763483 0.016906664 -0.07139417
-0.012393703 0.0008109685 -0.034912962 -0.07085602 -0.024285091 0.008915626 0.0119258305 0.058254257
0.03271598 -0.03580765 -0.0002523954 0.0036600286 -0.021133518 -0.032811653 -0.013228805 -0.047471255
-0.054601543 -0.013081692 -0.053381808 -0.080031894 0.066053204 0.04431568 -0.005869915 -0.025591694
0.043804962 -0.011299733 0.03488269 0.058766894 -0.02058376 -0.034188394 -0.0011907028 -0.047694884
-0.03059205 0.01925702 0.025140125 -0.0134925665 -0.054682963 0.06419383 -0.01963131 -0.057113387
-0.08462542 0.03717664 -0.00074613857 -0.09711664 0.022215368 -0.058187954 -0.04234275 -0.09074277
-0.04876779 -0.010936265 0.012317697 0.061190017 -0.013755236 -0.058962855 -0.018261457 -0.0759378
-0.013945189 -0.0777925 -0.026264492 -0.037456762 0.02362507 0.08091228 0.049652625 -0.04237318
-0.021288916 0.029495107 -0.02794066 -0.08055731 -0.012923308 -0.026703613 0.055378273 -0.07383577
-0.09299567 -0.0054054423 -0.03654214 -0.06728113 -0.022861706 0.0020445785 -0.030916091 0.04196482
0.061874326 -0.070856325 0.011372926 -0.04338815 0.02835462 -0.030413827 -0.007504775 -0.015110539
-0.013341378 0.016358204 0.05142571 0.10314261 -0.028041447 0.0071610273 0.00562297 -0.05335031
0.017674154 -0.022888426 -0.042332668 -0.091634735 0.01626764 0.025733234 -0.031864014 0.046092898
-0.035679348 -0.05831629 -0.047118776 -0.073650815 -0.036357667 -0.009493215 -0.0042756204 -0.023112766
0.062392227 0.034797866 0.011332085 -0.03654319 -0.0071955277 -0.028134199 2.7432394e-05 -0.045876056
-0.08420316 0.028139336 0.03468985 -0.012126015 -0.023617767 0.012869218 0.0065595666 -0.019760508
-0.060686875 -0.0051045255 -0.022420252 -0.024180591 -0.014230917 0.0153954895 0.001563442 -0.042213656
-0.09286524 0.020522954 0.071975894 0.049263913 -0.020051159 -0.091998026 -0.026458392 -0.050549146

fc1.bias f4 [120]
00000000: a9d1 14bc 215d e53c 5435 9a3c d3bc 6e3c
00000010: 5a31 923b 8aeb 25bd 186f 37bc 3aa9 1ebd
00000020: 3151 7abc 3ed9 423c 870f e3bc 0131 003d
00000030: 1c58 3bbd 5bd3 ddbc e0ec 41bd 1be8 b4bb
00000040: 80eb a4bb 8b85 d13b 5457 f23c d03e cf3b
00000050: dbcd 0fbd 014f d93c 252e 96bc ea15 b5bc
00000060: 2498 d93b c9f8 10bd f00a 613c 3847 c5bc
00000070: d173 79bb 2770 e03c fb17 16bd 5a37 c13c
00000080: 102d 11bd 878f 563c be7f 25bd b35b 0e3d
00000090: 5496 a6bb 75e0 d03c 39f6 1e3a fa7b 55bd
000000a0: fc7c 45bd e777 31bd ed16 c73b 1fcd 0c3d
000000b0: 57b7 2ebd b0b6 8cbb a667 12bd 8476 773c
000000c0: 5ff4 b73a bd4c 67bd 4977 2dbd 2016 8dbc
000000d0: 6d4d 66bc e2a0 ad3c bb57 6c3d c0a3 aebc
000000e0: d5e4 c1bc f8b4 d73c aa31 17bd 6a7d f7bb
000000f0: 4fa8 cabc b30d fcbc 9064 5ebc aa00 09ba
00000100: 4676 4cbd c9b8 df3c 4a9d 1dbb 5987 233b
00000110: 7d51 e53a 857b 40bd 09cf 5abc e76d 8dbc
00000120: 74bb 70bd 246b 0abd 2f32 1cbc 2ebb 85bc
00000130: 4745 31bd 2c9b eebc 7129 1dbd 07dc 5c3c
00000140: 03ec fb3c 8d8f 68bd 4526 f9bc df2e 2fbd
00000150: b55f 893c 2e12 1b3d 61b5 6aba 0441 fa3c
00000160: 2219 9dbc daac 6bbc ef9f e8b9 ac4a 3dbd
00000170: f133 7dbc 98c2 f0bc 19ca f93c 395a 2dbd
00000180: 3fba f0bc 3210 003d 5ec3 053d f34e b8bc
00000190: 21aa b83c 5096 72bc 4256 893c 4405 0ebd
000001a0: 80cc 263c 8434 d93a 77b8 903c 8cb9 4abc
000001b0: 5ff3 fb3c 8a5a 34bc 8772 f63c 7331 33bc
000001c0: f3a5 f93a 77a0 ea3c 8e90 263c fd29 9d3c
000001d0: d1cb 803c 9110 0f3c 4458 b3bb ac5d 6dbc
-0.00908319 0.027998509 0.018824257 0.014571386 0.0044614496 -0.04050783 -0.01119592 -0.038735606
-0.015278147 0.011892615 -0.027717365 0.031296734 -0.045738325 -0.027078321 -0.047345042 -0.005520833
-0.0050329566 0.0063940934 0.029582657 0.0063246265 -0.03510843 0.02652693 -0.01833255 -0.022105176
0.006640451 -0.03539351 0.013735518 -0.024081811 -0.0038063417 0.027397228 -0.036643963 0.023585964
-0.035443366 0.013095743 -0.040405028 0.03475542 -0.0050838385 0.025497654 0.0006063912 -0.052120186
-0.048214898 -0.04332724 0.006075731 0.034375306 -0.042655315 -0.004294239 -0.035743378 0.01510394
0.001403462 -0.056469668 -0.042350087 -0.017222464 -0.014056546 0.021194879 0.057700854 -0.021318316
-0.023668686 0.02633141 -0.036912598 -0.0075527923 -0.024738459 -0.030768251 -0.013573781 -0.0005226234
-0.04991748 0.027309792 -0.002405005 0.00249525 0.0017495599 -0.046992797 -0.013355025 -0.01726432
-0.05877252 -0.033793584 -0.009533449 -0.016324606 -0.04327896 -0.029126726 -0.0383696 0.013480193
0.030752188 -0.056777526 -0.030413756 -0.04276931 0.01676927 0.037859134 -0.0008953419 0.03054858
-0.019177023 -0.014384473 -0.00044369648 -0.04621379 -0.015454278 -0.029389665 0.030491875 -0.04232237
-0.029385684 0.031265445 0.03265702 -0.022498583 0.022542061 -0.014806345 0.016764764 -0.03467299
0.010180593 0.0016571437 0.017666085 -0.012373339 0.030755697 -0.011007914 0.030083908 -0.010937083
0.0019046649 0.028640969 0.0101663 0.01918506 0.015722187 0.008731977 -0.0054731686 -0.014487665

fc2.weight f4 [84, 120]
00000000: dbf8 bb3d c667 96bd 1370 90bc 68f6 3dbd
00000010: 5073 b2bc 69d8 cbbd 065b 89bc 35f6 333c
00000020: 4acc 473d afb4 ac3d 10ba 5fbd 48db 30bd
00000030: 30c8 813d 265b 95bd b61b 80bc 9284 033e
00000040: 93e5 f1bd e4d9 903c 16f8 fcbd 51c7 9c3c
00000050: 0be2 e53d 5642 85bc aada e939 b26c 443d
00000060: a035 46bd 1dbd f03c 0e65 e13d 3476 443d
00000070: 2f5c 053d 1a54 2c3d d053 d43d b832 bfbd
00000080: 6a57 a13d 0c10 2e3d b3bc edbd 5f4f e2bc
00000090: a5db 0ebd 5fd3 07be 367d 44bd c7d0 6a3d
000000a0: 4975 ae3d cda9 c9bd 0698 5d3d ceb8 f13c
000000b0: e6da 8a3d dc93 90bc 2098 533d 5948 5f3d
000000c0: 7686 2f3d 810e 353d 21f3 763d de60 1a3d
000000d0: bfbc 36bb 80b3 94bc a547 08bd 5cb0 88bd
000000e0: 603f 423d 89cc 973d 5ef9 71be 8388 ab3d
000000f0: 3565 cebc afe4 4a3d 5376 94be 2012 863d
00000100: df40 fc3c bd15 9e3c 4fc8 283d 0486 ef3c
00000110: 7e33 2cbd 86e4 2c3d 552a 86bc 0ceb a7bd
00000120: 28cd 75bc 94e5 8fb9 d106 b5bd 431b d73d
00000130: 2b24 a33d 071a 90bd 2e9d 783d 8840 1f3c
00000140: 1cf8 483d af46 013d dff0 77be a1db 463d
00000150: 990d 3d3e 659e 01bc ef39 8abd ce8c d0b9
00000160: d894 033d aad3 e7bd a412 7f3d ea13 313d
00000170: e201 383e 32f4 c4bd 8723 ecbc 7f11 923e
00000180: d722 e5bc bb1e b33d b295 82bd 2f9c a5bd
00000190: d5d9 5dbd 53a6 08bd b85a 94bd 27b1 713d
000001a0: c76b 30be 5e67 993c e910 d93c 825e 6dbb
000001b0: c876 a73c 68f4 c8bd 25a8 4abd 1b2d 033d
000001c0: 4e4d 04be 8ee1 01bd df72 ab3d 5db5 4c3d
000001d0: 6360 c53c 2868 adbc 006f dc3c 6a41 f63a
000001e0: 5b93 243d ff16 e63d 12d3 ecbd d34e c03c
000001f0: c147 42bd 1bdb 283d d75c 733c abbc 3d3e
00000200: 08a5 21bd 2c98 42bc 15d0 373c fa74 0e3d
00000210: 8ccb 933a ad3f 3f3d bbbe 2cbd d649 a2bd
00000220: aed0 5fbd 71a1 3bbc 905e 603e 7b40 07be
00000230: d721 1bbd cddf b2bd ea70 3c3d e05e 943b
00000240: 8600 c5bb b16a 75bd 4e16 45bd 53fa ff3c
00000250: 2830 3c3b ca5a 8f3c f3c6 24bb 730d 57bc
00000260: f260 b3bc a866 013c 1248 5abd c566 d8bc
00000270: bbf4 b53b 1202 8b3e 6bc5 56be 551d 25bd
00000280: 2be1 5ebd 9482 42bd 5625 6bbd ebbe 95bc
00000290: cc46 67bc 140a 23bd 96f0 b2bc 02d7 8abc
000002a0: 05f0 b4bd a913 7cbd d52c 1bbd be9e a23c
000002b0: c15a 0cbd 3623 b5bd 695d adbc 45fb 1dbe
000002c0: 1da1 073d e791 6c3c 070c 5dbd f375 8cbd
000002d0: 1d9f 853d 9494 9f3c 3310 403d 0413 5abb
000002e0: adf5 b7bd 3779 fa3c f234 b53c 6f0e 96be
000002f0: c0e8 9abd e9bc dbbb ee6d 613d 8946 bbbd
00000300: 86ac 043d c292 40bd f687 b4bd 51a5 c8bd
00000310: e711 50bd a004 74bd 8dde 863c 148a 88bd
00000320: e49d 273d a191 a73d e8ac d9bb 04bf 52bb
00000330: c8d2 70be 650a f0ba 7f68 663d 6583 ebbd
00000340: 24de bebc b191 3dbe ec47 3d3d 3238 a73c
00000350: ec6c d6be 47d8 51bd 06ab 083c 9981 febe
00000360: 7583 1b3e 574f 7e3d 7cfb a73c b00f cbbd
00000370: c773 ff3c d5c6 da3c e172 fabb 11cc 043d
00000380: 3f42 7fbe 2231 06bc 4488 a9bc 5788 603d
00000390: 79d1 353b 4228 b7bd c5fc 623d 399e 6abc
000003a0: 0ac8 873c 3ed5 16bc ca75 0d3d 49eb af3d
000003b0: 2073 8a3d 1f92 d83c 853b 453c 1886 2fbc
000003c0: d0bf 9d3d 7775 d3bc b215 1e3b fbeb cb3c
000003d0: 1098 b8bd a293 80bd d23c f3bc 354b 95bd
000003e0: 3983 8b3d ac65 863d f071 813c 0d39 df3b
000003f0: 3c77 383d fec0 b6bd 6ea5 29bd c900 0b3e
0.09178325 -0.07344012 -0.017631566 -0.04637757 -0.0217835 -0.09953386 -0.016767036 0.010983993
0.04877881 0.084329 -0.054620802 -0.043177873 0.06337011 -0.07292776 -0.015638214 0.1284354
-0.11811366 0.017682023 -0.12352006 0.01913801 0.11224755 -0.016266983 0.0004460414 0.047955222
-0.048390985 0.029387051 0.11005603 0.04796429 0.032558616 0.042072393 0.103675485 -0.09335846
0.07878001 0.042495772 -0.11608257 -0.027625738 -0.034877438 -0.13264225 -0.047970973 0.05732801
0.08518464 -0.0984684 0.05410006 0.029507067 0.06780033 -0.01764863 0.05165875 0.054512355
0.04285284 0.044203285 0.06029046 0.037690036 -0.0027883498 -0.018151999 -0.03327145 -0.06674263
0.04742372 0.07412059 -0.23630282 0.08375647 -0.025194744 0.049534496 -0.28996524 0.06546426
0.030792652 0.019297475 0.041206654 0.029238708 -0.042041294 0.042210124 -0.016377607 -0.081991285
-0.015002526 -0.00027446134 -0.08839191 0.10503247 0.07965883 -0.07036214 0.060696773 0.009719975
0.04906474 0.03156155 -0.24212979 0.0485493 0.18462218 -0.007911299 -0.06749331 -0.0003977776
0.03212437 -0.113196686 0.062273636 0.043231882 0.17969468 -0.09616889 -0.028825535 0.28528973
-0.027970714 0.08746096 -0.06376208 -0.0808643 -0.05416282 -0.033361744 -0.07243866 0.059006836
-0.17228614 0.018726047 0.026497321 -0.003621966 0.020442382 -0.09812242 -0.04947676 0.032025438
-0.12920114 -0.031709246 0.08371519 0.04997765 0.024093812 -0.02116783 0.026908398 0.0018787805
0.04017959 0.11234855 -0.11563696 0.023475086 -0.04743171 0.04122458 0.014853678 0.18529002
-0.039464027 -0.011877101 0.011219044 0.034779526 0.0011275872 0.046691585 -0.042174082 -0.07924239
-0.05464237 -0.011452065 0.21911073 -0.13208191 -0.03787407 -0.08734093 0.04600612 0.0045279115
-0.0060120253 -0.059916202 -0.048116975 0.031247294 0.0028715227 0.017499346 -0.0025142997 -0.013125765
-0.021896813 0.00789801 -0.053291388 -0.026416192 0.005552856 0.27150017 -0.20973746 -0.040311176
-0.054413956 -0.04748781 -0.057408653 -0.018279513 -0.014116 -0.039804533 -0.021843236 -0.016948227
-0.088348426 -0.061542187 -0.037884552 0.019851085 -0.034266237 -0.088446066 -0.021162705 -0.15427883
0.033112634 0.014439083 -0.05396655 -0.068584345 0.06524489 0.019480027 0.04689045 -0.0033275494
-0.08982406 0.030575378 0.022119973 -0.29307887 -0.07563925 -0.0067058695 0.055036478 -0.09144313
0.032391094 -0.04701496 -0.08814995 -0.097971566 -0.050798323 -0.059574723 0.016463542 -0.06666961
0.04092206 0.081820734 -0.0066429265 -0.0032157311 -0.23517907 -0.0018313645 0.056252 -0.11499671
-0.023299284 -0.18512608 0.04621117 0.020412538 -0.41879976 -0.05123165 0.008341556 -0.4970825
0.15186866 0.062087383 0.02050566 -0.099151015 0.031183137 0.026706139 -0.007643089 0.032421175
-0.24927615 -0.008190425 -0.02069486 0.054817524 0.0027743264 -0.089432254 0.05541684 -0.01431995
0.016574878 -0.009206114 0.03453616 0.08589799 0.067602396 0.026436863 0.012038116 -0.010713123
0.07702601 -0.025812848 0.0024121818 0.024892798 -0.090133786 -0.06278159 -0.029692087 -0.07289735
0.06812138 0.06562361 0.0158014 0.006812221 0.045035586 -0.08923529 -0.04141753 0.13574518

fc2.bias f4 [84]
00000000: 24b7 f93c d533 373d 4d9c 013e 4ba3 ef3d
00000010: f429 52b9 b4d7 113d 8d8c 2f3d dfa0 97bc
00000020: 1e68 693c 76d1 febc 8604 01be e077 063d
00000030: 4a24 103e 922c 193c 0f2f 35bd 51ce ff3d
00000040: 2076 08be 4093 66bd 7743 d23d d3fe 793d
00000050: b041 793d 574a c23d a028 ca3c a045 4a3d
00000060: bb4f 91bd 4e99 ff3d 15cc 42be 4048 953d
00000070: 7818 69bd 9712 41bd 1559 08bd 019f 57be
00000080: 15f5 5a3d 7d63 dc3c 97a9 49be 15d1 9d3b
00000090: 0d4f 0cbd dcb7 a73d 691c a83d 4c93 90ba
000000a0: 7283 893c 5005 06be d938 a03d c071 10bd
000000b0: 36b7 be3d 0d22 b83c 6d08 ee3d 88d9 d6bd
000000c0: 6983 2fbd 1a04 7c3c 21f2 04be 488d 283c
000000d0: 2b56 0a3d b40c 553d f5c4 28bc c65e 883d
000000e0: 1329 96bd e59d 84be caf3 ac3c 1b98 c13c
000000f0: 6003 56bd 88d8 c73d c109 26be b6dc 373c
00000100: 94eb 853d 758e 493d 753e 063d 712f c4bd
00000110: 0cc3 0e3e b965 ac3d d759 143d 98bf 7b3d
00000120: 0d23 8bbd 35ea 853d 3c7d 9c3d fdb3 993d
00000130: 06f4 d7bd ff02 ff3d fbf4 b83d 9e39 363d
00000140: 76f6 693d 6e37 603d d0b6 ea3d 5326 0abc
0.030482836 0.044727165 0.1265728 0.117010675 -0.0002004279 0.0356061 0.04285865 -0.018509327
0.014246015 -0.031105738 -0.12599382 0.032829165 0.14076343 0.009349005 -0.04423433 0.124905236
-0.13326311 -0.056292772 0.10266774 0.061034035 0.06085366 0.094868354 0.024677575 0.049382806
-0.070952855 0.124804124 -0.19023164 0.07289171 -0.0569081 -0.04713687 -0.03328808 -0.21056749
0.053456385 0.026902908 -0.196936 0.0048161843 -0.034255076 0.08189365 0.08208544 -0.0011030226
0.01678631 -0.13087964 0.07823343 -0.03526473 0.093122885 0.022477174 0.11622701 -0.104907095
-0.042849932 0.015381837 -0.1298299 0.01028759 0.033773582 0.052014068 -0.010300864 0.066587016
-0.07332053 -0.25901714 0.021112341 0.0236321 -0.052249312 0.09758097 -0.16214658 0.011222055
0.065390736 0.049208123 0.032774407 -0.09579361 0.13941592 0.084178396 0.03621849 0.061462015
-0.06793795 0.06538812 0.07641074 0.07505033 -0.10544591 0.12451743 0.09031101 0.04448854
0.05711981 0.054740362 0.1146065 -0.008431989

fc3.weight f4 [1, 84]
00000000: c65b 153d 94d9 67be a6a2 b33d 8346 7fbe
00000010: e7fd b43e 73e4 6b3d b3b0 7fbd ff1e 0cbe
00000020: acf1 4c3d 6efa 37be 6325 94bd 33d0 9d3d
00000030: 867e d53d 76b1 fa3d 6f1c 64bc e08c db3d
00000040: 84ae a6bc 62b5 7cbd bfb5 4bbe a523 3abe
00000050: 43ea ab3d 72b8 843e a696 6b3c cea9 8bbe
00000060: c369 f9bd 6641 aa3d e7fc 31bd 15ff 483e
00000070: 0c76 b73e d740 1fbc 3901 963c 89d1 833d
00000080: e9eb 0e3e 683b 88be 4b0f 653d 7f71 a9be
00000090: 0a3f 27be 9c04 ce3d 3159 033e 0217 153e
000000a0: 4239 63be 48f9 07bd ba19 38be 8a59 6a3d
000000b0: d4f1 91be ea31 9c3e bdc4 d93d 2b01 a3be
000000c0: 9bb6 80ba 09bc b3be 98a1 dc3d f54f bfbd
000000d0: e6df eabd 452f 113d 68b5 a53e 510f 92be
000000e0: 7f56 10bf e269 42bd ff35 873e 0b96 393a
000000f0: 9f89 3fbc 5ff6 ecbd 40b3 18bd 4279 2a3f
00000100: fe65 d5bd 5497 063f e519 69be 4aa1 853d
00000110: e3cf a73d 9711 14be e882 f3bd 5c10 85be
00000120: 124e dbbb 04c1 963e cb62 e13c 16f4 a5bd
00000130: 3017 a3bd 7355 dc3d 019d da3e d993 443d
00000140: 46e3 b83d fc05 f43d 53d7 3cbd 0671 7cbd
0.036464475 -0.22641593 0.08771257 -0.24929242 0.35349962 0.057590913 -0.062424373 -0.13683699
0.050035164 -0.17966625 -0.072336935 0.077057265 0.10424523 0.12240879 -0.013922795 0.10720229
-0.020346887 -0.061696418 -0.1989355 -0.1817766 0.08394291 0.2592197 0.014379179 -0.27277988
-0.121783756 0.08313255 -0.043454077 0.19628556 0.3583225 -0.009720049 0.01831113 0.0643645
0.1395718 -0.26607823 0.055922788 -0.33094403 -0.16332641 0.10059473 0.12826993 0.14559558
-0.22189811 -0.033196718 -0.17978564 0.057214297 -0.28504813 0.3050683 0.10633228 -0.3183683
-0.0009820046 -0.35104397 0.10773009 -0.093414225 -0.114684865 0.03544547 0.32364964 -0.2852731
-0.5638198 -0.04746426 0.26408383 0.0007079548 -0.011690526 -0.11570429 -0.03728032 0.66591275
-0.10419844 0.5257466 -0.22763784 0.06524904 0.08193948 -0.14459835 -0.11890203 -0.25989044
-0.0066926563 0.29444134 0.027512928 -0.08103196 -0.07963407 0.10758486 0.4269791 0.04799256
0.09027724 0.11915204 -0.046103787 -0.061631225
